NLPA1/neural_lm2.pth (torch, 535205 bytes, 7 tensors)

embedding.weight f4 [101, 100]
0	0x3f7835c4	0.9695704
1	0x3f5c3341	0.8601571
2	0xbf26de9b	-0.6518342
3	0xbca165ee	-0.019701924
4	0xbf42acad	-0.7604473
5	0xbf2ac59d	-0.66707784
6	0xbe96f1c4	-0.29481328
7	0xbf53d07e	-0.8274001
8	0xc0008332	-2.0080075
9	0x3f2577af	0.6463575
10	0x3f6d479b	0.92687386
11	0xbea69ddf	-0.3254232
12	0xbf864036	-1.0488346
13	0xbf6e60bc	-0.93116355
14	0xbe61171e	-0.21981475
15	0xbe9072d2	-0.282126
16	0xbf278c18	-0.6544814
17	0x3f354ba4	0.70818543
18	0xbf8c3e47	-1.0956506
19	0x3f884b84	1.0648046
20	0x3fb528c5	1.4153067
21	0xbe928a00	-0.2862091
22	0x3f728633	0.9473602
23	0x3f213c63	0.6298277
24	0xbdde51c2	-0.10855438
25	0xbf30d857	-0.6908011
26	0xbed04b7a	-0.40682584
27	0xbd407894	-0.046989992
28	0x3e536253	0.20642976
29	0xbf91ea93	-1.1399711
30	0xbf68e07c	-0.90967536
31	0xbffcfef1	-1.9765302
32	0x3f2cdd2a	0.6752497
33	0x3fc638b3	1.5486053
34	0x3f4b87d7	0.7950415
35	0xbfb65613	-1.4245018
36	0xbf6799eb	-0.90469235
37	0x4009ddfb	2.1541736
38	0x3eb0d57e	0.34537882
39	0x3f00d3a6	0.5032295
40	0x3f8ea538	1.1144171
41	0xbefff0ba	-0.49988347
42	0xbff2b59b	-1.8961672
43	0xbf740e0f	-0.9533395
44	0xbf5a6261	-0.85306364
45	0xbf37b251	-0.71756464
46	0x3fa5402c	1.2910209
47	0xbe704fbd	-0.23467918
48	0xbfbe7916	-1.4880702
49	0x3fb6a546	1.4269187
50	0xbe93bbc8	-0.28854203
51	0x3fbec674	1.4904313
52	0x3f02e5a7	0.5113167
53	0xbf88be5d	-1.0683094
54	0x3e303d5c	0.17210907
55	0xbd809d92	-0.06280054
56	0x3fa5b21c	1.294498
57	0xbeba7bb6	-0.3642251
58	0x3e15516a	0.14581838
59	0x3fd524b7	1.665183
60	0xbf9dc5f0	-1.2326031
61	0xbe6e63e4	-0.23280293
62	0x3dc6179a	0.096724704
63	0xbed7371a	-0.42034227
64	0x3e9e26fb	0.30889115
65	0xbe0f80e3	-0.1401401
66	0xbf1eb009	-0.6198736
67	0xbfc3f54c	-1.5309234
68	0xbe4820ed	-0.1954381
69	0x3edc77b0	0.43060064
70	0x3f623465	0.883612
71	0x3fc4eb91	1.5384389
72	0x3e155af3	0.14585476
73	0x3f438bb1	0.7638503
74	0x3f90821d	1.1289707
75	0xbfd17386	-1.636338
76	0xbc81d0c2	-0.015846614
77	0x3eeaa874	0.45831645
78	0x3f2c01fd	0.67190534
79	0xbff37cae	-1.9022424
80	0xbef02f56	-0.46911114
81	0xbea79e02	-0.32737738
82	0xbde0db9b	-0.109793864
83	0xbfceea84	-1.6165318
84	0x3e6f775f	0.2338538
85	0xbf34b56f	-0.70589346
86	0xbf0d17f8	-0.551147
87	0xbf22c7a9	-0.6358591
88	0xbc19793b	-0.0093672825
89	0x3f0cba00	0.54971313
90	0xbf037ee5	-0.513655
91	0xbfab8994	-1.340136
92	0xbca3fc4f	-0.020017771
93	0x3e47e85e	0.19522235
94	0xbf41ed38	-0.7575259
95	0xbf3d25d7	-0.73885864
96	0xbf8eaca5	-1.1146437
97	0x3f866dd4	1.0502267
98	0x3ee38e1e	0.44444364
99	0xbf2782c5	-0.65433913
100	0x3f258a97	0.64664596
101	0x3f06c43d	0.52643186
102	0x3ef3b6a0	0.4760027
103	0xbf0dfbfd	-0.5546263
104	0x3f1ec8e2	0.6202527
105	0x3fc948b7	1.5725316
106	0x3f45bbbe	0.77239597
107	0xbe892ec9	-0.26793507
108	0x3f99f5b3	1.2028106
109	0xbd885002	-0.06655885
110	0xbf296451	-0.66168696
111	0x3eac2cfe	0.33628076
112	0xbfa01ee6	-1.250943
113	0xc002bccc	-2.0427732
114	0xbe554a2b	-0.20829074
115	0xbf82c1da	-1.0215409
116	0x3fb353fa	1.4010003
117	0xbfbdaf5b	-1.4819139
118	0xbf270d1f	-0.65254396
119	0x3f4fd9bf	0.8119163
120	0x3e73b30b	0.23798768
121	0x3d5a4bfb	0.053295117
122	0x3ff4a064	1.9111447
123	0xbd1a0b55	-0.037608463
124	0x3ee53d64	0.447734
125	0x3e29add8	0.16570222
126	0x3fbf06d5	1.492396
127	0x3f568ba8	0.8380685
128	0xbf24b14c	-0.64333034
129	0x3fa82bce	1.3138368
130	0xbef6a7db	-0.4817494
131	0x3e986646	0.29765528
132	0x3ef8e4df	0.48612115
133	0xbf4dc73c	-0.8038213
134	0xbf7e3a5a	-0.9930779
135	0xbf83cdfe	-1.0297239
136	0x3fe30559	1.7736007
137	0xbea85943	-0.328806
138	0xbf06d460	-0.5266781
139	0x3f97e86d	1.1867806
140	0xbe815a22	-0.25264078
141	0x3effe057	0.49975845
142	0xbf4dd99e	-0.8041018
143	0x3f80bfc2	1.005852
144	0x3e82fa39	0.2558153
145	0x3e2eff4b	0.17089574
146	0x3f072e08	0.52804613
147	0x3ecb2cc4	0.3968259
148	0x3fa9343f	1.3219069
149	0x3f61a095	0.88135654
150	0x3f6ff85c	0.9373834
151	0x3d0feda1	0.03513873
152	0x3ec13686	0.3773691
153	0xbf62702e	-0.8845242
154	0x3e9c4889	0.3052409
155	0xbf8439cb	-1.0330137
156	0xbf1ae166	-0.6050018
157	0x3e087475	0.13325675
158	0xbf2836fd	-0.65708905
159	0x3e25ab28	0.16178572
160	0xbf29860b	-0.6622016
161	0x400c56c8	2.1927967
162	0x3f5b9b67	0.85784
163	0xbc41028a	-0.0117803905
164	0xbee2f3f5	-0.4432675
165	0x3eaa669a	0.33281404
166	0x3edf6e90	0.4363904
167	0x3f29745b	0.6619317
168	0x3f119461	0.56867033
169	0x3f2ddc0d	0.67913896
170	0xbe5670b5	-0.20941432
171	0x3f0a4dd8	0.5402503
172	0x3f4f13ca	0.8088957
173	0xbff5060a	-1.9142468
174	0xbf6071ca	-0.8767363
175	0x3e2e0da4	0.16997391
176	0x3e5d4511	0.21608378
177	0x3fbf3c81	1.4940339
178	0xbe4f65d1	-0.20253684
179	0xbeb213e1	-0.3478079
180	0x3d4d254b	0.050084393
181	0x3e156649	0.145898
182	0x3e9346ec	0.28765047
183	0xbe7cb07a	-0.24676695
184	0xbe73e0f6	-0.23816285
185	0xbe6c78da	-0.23092976
186	0x4024409a	2.566443
187	0x3fb100c8	1.3828363
188	0x3f973256	1.1812236
189	0x3e99a183	0.30006036
190	0x3fe18e90	1.7621632
191	0x3fc62b3a	1.5481942
192	0xbe225ae3	-0.15854983
193	0x3e5c3421	0.2150426
194	0x3e5e31e2	0.21698716
195	0x3f783f05	0.9697116
196	0x3d72514a	0.059159555
197	0x3ea435b1	0.32072213
198	0x3fe882ed	1.8164955
199	0x3d5635ed	0.05229752
200	0x3ec5d4a1	0.38638785
201	0x3ed72855	0.42022958
202	0x3f315f58	0.6928611
203	0x3fe65846	1.7995689
204	0x3e6dbf36	0.23217472
205	0x3dbfadf1	0.093593486
206	0xbd860b0b	-0.06545075
207	0x3e00da81	0.12583353
208	0xbe4357ce	-0.19076464
209	0x3f00642e	0.5015286
210	0xbfd371a4	-1.6519055
211	0x3e276627	0.16347562
212	0xbedb5213	-0.42836055
213	0x3f3ab2c0	0.72929
214	0xbd1a3c6b	-0.037655275
215	0x3e1d213a	0.15344706
216	0x3e8e5b0a	0.27803832
217	0xbeaf6b5d	-0.342616
218	0x3eb2aaf4	0.34896052
219	0x3e4844cc	0.19557494
220	0xbd723859	-0.05913577
221	0xbe3b66ed	-0.18300982
222	0xbf623f77	-0.8837809
223	0xbe6375ed	-0.22212954
224	0x3e127a8d	0.14304562
225	0x401087b7	2.2582834
226	0x3fb0434f	1.3770541
227	0x3c7f1ac3	0.015570345
228	0x3eed70da	0.4637516
229	0xbf9da744	-1.231667
230	0x3fb67e70	1.4257336
231	0x3f9851eb	1.1899999
232	0xbdaac1bc	-0.08337733
233	0x3f39b4f9	0.7254177
234	0x3e54c970	0.20779967
235	0xbe53a1b0	-0.20667148
236	0xbf8a30d6	-1.0796154
237	0x3ee764fa	0.45194227
238	0x3f259169	0.64675003
239	0xbca4a9e9	-0.02010055
240	0x3e40366b	0.18770759
241	0x3f092c08	0.5358281
242	0x3f98f40e	1.194948
243	0xbd8faf3b	-0.070158444
244	0xbf0f6db6	-0.5602678
245	0xbf32c653	-0.6983387
246	0x3efa79f7	0.48921177
247	0x3ec68583	0.38773736
248	0x3efa3ed7	0.48876068
249	0xbea07575	-0.31339613
250	0x3e64d678	0.22347438
251	0xbf0a2bd6	-0.5397314
252	0xbeb2b0cf	-0.3490052
253	0xbf8b069e	-1.0861394
254	0xbe10ffcd	-0.1416008
255	0x3f7b7b99	0.9823547

fc1.weight f4 [256, 300]
0	0xbd92e50e	-0.07172595
1	0x3e084600	0.13307953
2	0x3e008689	0.12551321
3	0x3e1266cd	0.14297028
4	0x3ef6ae92	0.48180062
5	0xbe558b53	-0.20853929
6	0xbe96a450	-0.29422235
7	0x3e351028	0.17681944
8	0x3c8d6e4e	0.017264511
9	0xbd67d81f	-0.056602594
10	0x3e14b427	0.14521848
11	0x3eaadea3	0.33372983
12	0x3e135112	0.14386395
13	0x3e53b4f7	0.20674501
14	0xbe12ba88	-0.14328969
15	0x3e2ebc97	0.17064129
16	0xbd3591aa	-0.04432837
17	0xbdc8511a	-0.09781094
18	0x3e171b64	0.14756542
19	0x3c202d8a	0.009776482
20	0xbc9b17cd	-0.018932248
21	0xbe01e9ec	-0.1268689
22	0x3ce8d64f	0.028422503
23	0x3e3a8515	0.1821483
24	0x3dfe31d2	0.12411846
25	0x3ef01044	0.4688741
26	0x3e4e4e89	0.20147146
27	0xbe2cfa94	-0.16892463
28	0x3c905a75	0.017621258
29	0x3e779ec3	0.24181657
30	0x3e4d5731	0.20052792
31	0xbe540699	-0.20705642
32	0xbc5f54d4	-0.013631064
33	0x3e56e588	0.20985997
34	0x3da642ab	0.08118185
35	0x3d16fee0	0.03686416
36	0xbd6a8efe	-0.057265274
37	0x3cfdd2ee	0.030984368
38	0x3e65a1ad	0.22424956
39	0x3d3272bd	0.043566454
40	0x3da77e36	0.0817837
41	0xbe2edf93	-0.17077474
42	0x3e8bb9f2	0.27290303
43	0xbe0fd2d2	-0.14045265
44	0xbe0a2407	-0.13490306
45	0x3e3275fc	0.1742782
46	0x3e09e0e5	0.13464697
47	0xbe753076	-0.23944268
48	0xbdda31f3	-0.10654058
49	0xbe09082b	-0.13382022
50	0xbcb20e08	-0.021735206
51	0x3d99cef6	0.07510178
52	0xbd4e6bce	-0.05039578
53	0xbd471b33	-0.048609924
54	0xbec707e0	-0.38873196
55	0x3e4b93fa	0.19880667
56	0xbe96162b	-0.29313788
57	0x3e154d07	0.14580165
58	0xbe783544	-0.24239069
59	0xbde7e3de	-0.11322759
60	0x3ee0b8d4	0.43891013
61	0x3ca02c9e	0.019552525
62	0x3dce9097	0.10086172
63	0x3e6e1541	0.23250295
64	0x3da8152f	0.082071654
65	0x3eca8c2b	0.39560065
66	0xbe54a622	-0.207665
67	0x3cea72f3	0.028619265
68	0xbe063ad8	-0.13108385
69	0xbe85bfdf	-0.2612295
70	0xbe056cb0	-0.13029742
71	0xbd4e5cae	-0.050381355
72	0xbe3c23db	-0.18373053
73	0xbeba21ed	-0.36354008
74	0xbd55aed6	-0.05216869
75	0xbe63ae5c	-0.22234482
76	0x3cb25aad	0.021771753
77	0xbd7ac1fb	-0.06122015
78	0x3d8807af	0.066420905
79	0xbeaf0b43	-0.3418828
80	0xbd47b660	-0.04875791
81	0xbccd2d29	-0.025045948
82	0x3db5c6a4	0.08875778
83	0x3de082fe	0.10962485
84	0x3d6acadf	0.05732238
85	0x3b9dac29	0.004811783
86	0xbeccfa5c	-0.4003476
87	0xbe0a3325	-0.13496073
88	0xbd79ce65	-0.06098785
89	0xbdd2b371	-0.10288132
90	0x3e0767c7	0.13223182
91	0xbd9d11cd	-0.07669411
92	0x3ea8e459	0.32986715
93	0x3d06c160	0.03289926
94	0x3e107602	0.14107516
95	0xbddfcf88	-0.10928255
96	0xbe12a20c	-0.14319628
97	0xbd789d85	-0.060697097
98	0x3d9d3724	0.07676533
99	0xbe0cf89a	-0.13766709
100	0xbd995aaa	-0.07487996
101	0xbc1083d6	-0.008820495
102	0xbe803b42	-0.2504521
103	0xbe17e672	-0.14834002
104	0x3e2cf489	0.16890158
105	0x3d8891cb	0.06668433
106	0xbcd07d31	-0.02545032
107	0xbe34b17e	-0.17645833
108	0x3ea4f9b0	0.32221746
109	0xbed73b7b	-0.42037567
110	0x3c291db0	0.010322019
111	0xbe885a19	-0.2663124
112	0xbdf9f5c1	-0.12205077
113	0x3ec53a26	0.38520926
114	0x3d7b8dae	0.061414413
115	0xbdce0e48	-0.10061318
116	0x3ded000a	0.11572273
117	0xbcd0874b	-0.025455138
118	0xbdac3f8b	-0.08410557
119	0x3de86f4a	0.11349352
120	0x3e86e3ef	0.26345775
121	0xbe8edce4	-0.279029
122	0x3e725f9f	0.23669289
123	0x3d93142e	0.07181583
124	0x3d066079	0.032806847
125	0x3ef4a829	0.47784546
126	0x3e53c227	0.20679532
127	0xbda30e45	-0.07961706
128	0xbde72c38	-0.11287731
129	0x3e0b525b	0.13605635
130	0x3d8846b1	0.06654108
131	0x3db7ce0a	0.08974846
132	0xbe44c0e7	-0.19214211
133	0xbdcb6bf5	-0.099327005
134	0x3ef2133a	0.47280294
135	0x3ddc19a0	0.10747075
136	0xbea23e59	-0.31688192
137	0x3f0e2a4e	0.555333
138	0x3e6a488d	0.22879238
139	0x3e2eaad5	0.17057355
140	0xbec05d6f	-0.37571284
141	0x3da818bd	0.082078435
142	0x3ee14ea3	0.44005308
143	0xbeb9fb4e	-0.36324543
144	0x3ec91a26	0.39277762
145	0xbe18d1c3	-0.14923768
146	0x3e2d9fa7	0.16955434
147	0x3e83ff3c	0.25780666
148	0xbe51e033	-0.20495681
149	0x3d6fa9c3	0.058511507
150	0xbe3ce6fe	-0.18447492
151	0xbee5bd11	-0.4487081
152	0x3f0d8a61	0.55289274
153	0xbe630912	-0.22171429
154	0xbcab4aed	-0.02090975
155	0x3d920a9f	0.07130932
156	0x3d3e4419	0.04645166
157	0x3e978e0c	0.2960056
158	0xbf025737	-0.5091433
159	0xbeade539	-0.33963946
160	0x3e3231a8	0.17401755
161	0xbcd99126	-0.02655847
162	0x3e86e1d0	0.26344156
163	0x3df059aa	0.11735852
164	0xbea411e0	-0.32044888
165	0x3d5a0bb5	0.05323382
166	0xbe98426a	-0.2973817
167	0x3bbe9cb4	0.0058170203
168	0xbd5464ba	-0.051853873
169	0xbe001536	-0.12508091
170	0x3e776f6a	0.24163595
171	0x3cf099ab	0.02937015
172	0xbe167919	-0.14694633
173	0x3e2687a0	0.16262674
174	0x3d8ea787	0.06965547
175	0xbe960bac	-0.2930578
176	0x3dac27d6	0.084060356
177	0xbe9618cf	-0.29315802
178	0x3f0d9b51	0.5531512
179	0xbd89442b	-0.06702455
180	0x3d79eb29	0.06101528
181	0xbd15698f	-0.03647762
182	0x3dfeba10	0.12437832
183	0x3e50df87	0.20397769
184	0xbd50b04a	-0.050949372
185	0x3df3fc22	0.11913325
186	0x3c7df3ab	0.0154999895
187	0xbdd1c8aa	-0.10243352
188	0xbb194ed2	-0.0023392928
189	0x3ee8bd2b	0.45456824
190	0xbf011b3f	-0.504322
191	0xbda6a18b	-0.081362806
192	0x3ee55d4e	0.44797748
193	0x3ea21a36	0.31660622
194	0xbcd5b15a	-0.026085544
195	0x3ea6f962	0.3261214
196	0xbe2e7612	-0.17037228
197	0x3d8e3d6d	0.0694531
198	0x3decf85a	0.11570807
199	0xbcd6d45b	-0.026224306
200	0xbda7cd68	-0.08193475
201	0xbea1df4e	-0.3161568
202	0xbcb4e0d9	-0.022079872
203	0xbe0dd634	-0.13851243
204	0xbee5daa9	-0.44893387
205	0x3e854025	0.260255
206	0xbe15f5a0	-0.1464448
207	0x3f11e712	0.5699321
208	0xbd534ea2	-0.051588662
209	0x3e123731	0.14278866
210	0x3d441941	0.047875647
211	0xbdcc9edc	-0.099912375
212	0xbe7cff62	-0.24706796
213	0x3d62aae0	0.05533874
214	0xbe111d66	-0.14171371
215	0x3e06eb59	0.13175716
216	0xbe31e513	-0.17372541
217	0xbcd09444	-0.025461324
218	0xbe757e87	-0.23974048
219	0xbe1a3d1c	-0.15062374
220	0xbdc9eb01	-0.098592766
221	0x3f30c4a5	0.69050056
222	0x3d85aaf5	0.06526748
223	0xbe0fb89d	-0.14035268
224	0xbd6fd0d2	-0.058548756
225	0x3d9c7d8d	0.076411344
226	0xbe40300e	-0.18768331
227	0xbe9793cf	-0.29604957
228	0xbec161e4	-0.37769997
229	0xbd7e7a55	-0.062128384
230	0xbeb4d840	-0.35321236
231	0xbdb0d135	-0.08633653
232	0xbceb507d	-0.028724903
233	0xbe89559d	-0.2682313
234	0x3e5015c2	0.203208
235	0x3c6aa9b1	0.014322684
236	0xbe0e4751	-0.13894393
237	0x3dc56e47	0.09640174
238	0xbe64cc8b	-0.22343652
239	0xbd081f7c	-0.03323315
240	0xbe0681a6	-0.13135394
241	0xbd3f857a	-0.046758153
242	0xbcb5298b	-0.022114536
243	0xbf042769	-0.51622635
244	0x3f10d1db	0.56570214
245	0x3d9c62ed	0.07636056
246	0xbc24412f	-0.010025307
247	0xbe99c7bf	-0.30035207
248	0xbe8040cf	-0.25049445
249	0xbe80cbf8	-0.25155616
250	0x3ebe8d5e	0.3721723
251	0x3e03eac7	0.12882529
252	0xbc71f3d5	-0.014767607
253	0x3ef1e0ed	0.47241917
254	0x3e523ddb	0.20531408
255	0xbd3d6811	-0.046241824

fc1.bias f4 [256]
0	0x3db0e91b	0.08638211
1	0x3e95cbe3	0.29257116
2	0xbd1ca608	-0.038244277
3	0x3e5c0619	0.21486701
4	0xbe9cbb3f	-0.30611607
5	0xbeb92171	-0.36158326
6	0x3ecfafb7	0.40563747
7	0x3d289fa7	0.04116788
8	0x3dac656a	0.08417781
9	0xbe512433	-0.20423965
10	0xbdcf3b24	-0.10118702
11	0x3e6b8f91	0.23003985
12	0xbe531742	-0.20614341
13	0x3e289202	0.16461948
14	0x3e4787be	0.19485375
15	0x3e02eafa	0.12784949
16	0xbe4b29e3	-0.19840197
17	0xbe24aba6	-0.16081104
18	0xbd8aaafa	-0.067708924
19	0xbdadad51	-0.08480323
20	0xbe9a1dbc	-0.3010081
21	0x3dfa0684	0.12208274
22	0xbe856141	-0.2605076
23	0x3ce3a9a1	0.027790846
24	0x3e5f22d8	0.21790636
25	0xbe183df2	-0.1486738
26	0x3df5c243	0.11999943
27	0x3e3d11ca	0.18463817
28	0x3d845655	0.06461779
29	0xbd6b12e7	-0.057391074
30	0xbe10260f	-0.14077018
31	0xbdad1f09	-0.08453185
32	0x3ed7b433	0.4212967
33	0xbe141f70	-0.14465117
34	0xbe1471b3	-0.14496498
35	0xbddd62e0	-0.108098745
36	0x3d23a8d8	0.039955944
37	0x3e88bf16	0.26708287
38	0xbeb059f1	-0.3444362
39	0x3deef773	0.11668291
40	0xbe4b231a	-0.19837609
41	0xbe9e8d38	-0.30967116
42	0xbeb1208e	-0.3459515
43	0x3cff5ea2	0.031173054
44	0x3e72a6eb	0.23696487
45	0xbe6bedbc	-0.23039907
46	0xbe8adbca	-0.2712081
47	0x3e23e778	0.16006267
48	0x3de6d19e	0.1127045
49	0x3ddf730d	0.10910616
50	0x3d4e2b28	0.050334126
51	0x3e0ef1dc	0.1395945
52	0xbe91f668	-0.28508306
53	0xbe4a0b3d	-0.1973085
54	0x3ea9526f	0.33070704
55	0x3e108100	0.1411171
56	0xbe289aa0	-0.16465235
57	0x3daa625e	0.08319543
58	0x3e215579	0.15755261
59	0xbb8e76ca	-0.004347657
60	0xbe19da67	-0.1502472
61	0x3de2c8f2	0.110734835
62	0xbd29ff7a	-0.041503407
63	0x3e3aaa49	0.18229021
64	0x3cd3d3de	0.025857862
65	0x3e2b9132	0.16754606
66	0x3dc5f1b2	0.0966524
67	0x3ece91ba	0.40345556
68	0xbc04e9ed	-0.008112413
69	0x3db9ce60	0.09072566
70	0xb99b0892	-0.0002957029
71	0x3e6564fc	0.22401804
72	0x3d8cd1a1	0.06875921
73	0xbc65b9bb	-0.014021332
74	0xbec3e9fe	-0.3826446
75	0xbd63edee	-0.05564683
76	0x3e4a62e4	0.19764286
77	0xbe5441df	-0.20728253
78	0x3dc7839d	0.097419
79	0xbe31ea6f	-0.17374586
80	0xbe601830	-0.21884227
81	0xbeaf113d	-0.3419284
82	0x3e58ba6e	0.21164867
83	0x3ef97e8d	0.48729363
84	0x3bbe7be1	0.0058131074
85	0x3ea97bc9	0.33102253
86	0xbe8d3c47	-0.2758505
87	0xbe2be9dc	-0.16788429
88	0xbeb8a4d4	-0.36063254
89	0xbd9c9128	-0.07644874
90	0xbce88a94	-0.028386392
91	0xbe37491f	-0.17898987
92	0xbe847f9e	-0.25878614
93	0xbe9cc512	-0.30619103
94	0x3e3a9695	0.18221505
95	0xbdc76804	-0.09736636
96	0x3efba389	0.49148205
97	0xbdc9319f	-0.098239176
98	0xbd5de6dc	-0.054175243
99	0xbe0d2773	-0.1378458
100	0xbeceeaca	-0.40413505
101	0x3c985abb	0.018597951
102	0x3e8cc7f9	0.27496317
103	0x3ddd17d5	0.10795561
104	0x3dd08a69	0.1018265
105	0x3e8514d1	0.25992444
106	0xbd864eee	-0.065580234
107	0xbe8b8564	-0.27250206
108	0xbeb38c51	-0.3506799
109	0xbea22afb	-0.31673416
110	0x3e07a742	0.13247398
111	0xbe950292	-0.29103523
112	0x3e596b9c	0.21232456
113	0x3d6c7be0	0.057735324
114	0xbe5d322a	-0.21601167
115	0x3e90e604	0.28300488
116	0x3d8f5226	0.069980904
117	0xbf22521a	-0.6340653
118	0x3eed022d	0.46290722
119	0x3e1df521	0.1542554
120	0x3d467aea	0.048457064
121	0xbe8fc77f	-0.2808189
122	0xbe5fb60c	-0.21846789
123	0x3e841075	0.25793806
124	0xbebd77b6	-0.37005395
125	0xbe394df7	-0.18096147
126	0x3e57c9bd	0.21073051
127	0xbd64e071	-0.055878107
128	0xbe15018c	-0.14551371
129	0x3ed7bbac	0.4213537
130	0xbe483635	-0.19551928
131	0xbe5803be	-0.21095178
132	0xbea642e1	-0.324729
133	0x3e88a09e	0.2668504
134	0x3e5da14e	0.21643564
135	0x3e62ad17	0.22136341
136	0xbe011ec2	-0.1260939
137	0x3e976996	0.29572743
138	0xbda6cd66	-0.081446454
139	0xbd4d6a2f	-0.050150093
140	0x3e3e99dc	0.1861338
141	0xbe96df92	-0.29467446
142	0x3df88a28	0.12135726
143	0xbd54e5d4	-0.051976994
144	0x3dd0c99a	0.101947024
145	0x3e161eae	0.14660141
146	0xbe5c1993	-0.21494131
147	0x3d972d97	0.073817424
148	0xbe24186b	-0.1602494
149	0xbe67d308	-0.22639096
150	0x3ccb1012	0.024787936
151	0x3e755723	0.23959021
152	0xbef5fa03	-0.48042306
153	0xbd4e9ee8	-0.050444514
154	0xbddf1ed2	-0.108945504
155	0xbeb2579b	-0.34832463
156	0xbd55ac49	-0.052166257
157	0xbe4b4b47	-0.19852935
158	0x3cbd462d	0.023104751
159	0xbd4667c5	-0.048438806
160	0x3e38e5c1	0.18056394
161	0xbe3271bc	-0.17426199
162	0xbd0e9480	-0.03480959
163	0x3d0a0ab4	0.033701614
164	0xbd4fce10	-0.050733626
165	0x3d9ef223	0.07761028
166	0x3d8695bd	0.06571529
167	0xbe33495b	-0.17508452
168	0xbe6ea7a7	-0.23306142
169	0x3e4f4cc6	0.2024413
170	0x3e88e1e0	0.2673483
171	0xbd9bbc26	-0.07604246
172	0xbd70d51b	-0.058796983
173	0xbe0ba674	-0.13637716
174	0x3dd00a96	0.10158269
175	0xbe3b8455	-0.183122
176	0x3e5ce451	0.21571471
177	0x3d66476f	0.056220468
178	0x3df06496	0.11737935
179	0xbe76472d	-0.24050589
180	0x3d98a656	0.07453601
181	0xbe3bb245	-0.18329723
182	0xbe0a187d	-0.13485904
183	0x3dd9160c	0.10599908
184	0x3dbd1764	0.09232977
185	0x3eb50cc3	0.353613
186	0x3ec8d9c0	0.3922863
187	0xbe5be399	-0.2147354
188	0x3c342060	0.010994047
189	0x3ed32394	0.4123808
190	0xbd021525	-0.031758446
191	0x3e5c6dae	0.21526214
192	0x3dcf6c5a	0.10128088
193	0xbe0e51ce	-0.13898394
194	0x3e8f64a8	0.28006482
195	0xbdd17360	-0.10227084
196	0xbe655dfd	-0.22399135
197	0x3d8c7527	0.068582825
198	0x3d8047a7	0.062636666
199	0xbd1811d4	-0.037126377
200	0xbdcde141	-0.100527294
201	0xbe2e48b7	-0.17019926
202	0x3e842572	0.25809819
203	0x3e8a1b80	0.26974106
204	0x3e9015f1	0.2814174
205	0x3c370892	0.011171477
206	0x3e3ca850	0.18423581
207	0x3e8b88f5	0.27252927
208	0xbddda95f	-0.108233206
209	0xbe1ec910	-0.15506387
210	0x3e84c0b8	0.25928283
211	0xbe4d0946	-0.20023069
212	0x3cc67bc7	0.024228944
213	0xbf1d196a	-0.61366904
214	0x3dcb506b	0.09927448
215	0x3dcc5782	0.09977628
216	0xbd6f9a00	-0.058496475
217	0x3eb34c6b	0.3501924
218	0x3c163899	0.009168767
219	0xbe99b365	-0.3001968
220	0xbe9d2376	-0.30691117
221	0x3c0206e8	0.007936217
222	0x3e230828	0.1592108
223	0xbea4c51a	-0.32181627
224	0x3e06eefd	0.13177104
225	0xbe2d1455	-0.16902287
226	0xbcf27fd3	-0.029601967
227	0xbe100693	-0.14065008
228	0x3e237b14	0.1596492
229	0xbea4390b	-0.3207477
230	0xbd9b9121	-0.075960405
231	0xbedc8f42	-0.43078047
232	0xbcea631f	-0.028611718
233	0x3ef16b2d	0.4715208
234	0xbde2db9a	-0.11077042
235	0x3e472801	0.19448854
236	0xbe764b36	-0.24052128
237	0x3df0a802	0.11750795
238	0x3ea28bc3	0.31747255
239	0x3ce89cea	0.028395135
240	0xbe56e75f	-0.20986699
241	0x3db2cab2	0.08730067
242	0x3eb633d4	0.35586417
243	0x3e39d9e6	0.18149528
244	0xbda817b3	-0.08207645
245	0x3d63cb64	0.05561389
246	0x3ea25060	0.31701946
247	0x3e143899	0.14474715
248	0x3c05a363	0.00815663
249	0x3e83f47f	0.25772473
250	0xbdf89e64	-0.121395856
251	0xbdfb191c	-0.122606486
252	0x3f15f5d6	0.5857824
253	0xbcfb5309	-0.030679243
254	0x3d542083	0.051788818
255	0xbdab85e2	-0.083751455

fc2.weight f4 [128, 256]
0	0xbe9dc7bc	-0.30816448
1	0x3d74c944	0.059762254
2	0x3e9af73e	0.30266756
3	0xbd9fc0b7	-0.07800429
4	0xbdf24175	-0.11828891
5	0x3dfd96f5	0.123823084
6	0xbb6982c3	-0.0035630919
7	0x3dd80939	0.10548634
8	0x3caa5100	0.020790577
9	0xbdb800ff	-0.08984565
10	0xbd9e1f37	-0.077207975
11	0x3e1eb6ab	0.1549937
12	0x3e4d137e	0.20026967
13	0x3e5a8c63	0.21342616
14	0xbe8490ab	-0.25891623
15	0xbd630571	-0.05542511
16	0xbc289337	-0.010289005
17	0xbd81da28	-0.06340438
18	0xbee5ba8a	-0.4486888
19	0x3e29bfa1	0.16577007
20	0x3dc925e8	0.09821683
21	0x3dea407c	0.11438081
22	0x3cc706fc	0.024295323
23	0x3e4a0b97	0.19730984
24	0x3d9f4d9c	0.07778475
25	0xbe294d1a	-0.16533318
26	0x3daee43c	0.08539626
27	0xbe173374	-0.14765722
28	0x3eb03506	0.34415454
29	0x3ead4c2f	0.33847186
30	0x3d293dca	0.041318692
31	0xbe3b2bd0	-0.18278432
32	0x3e0daadd	0.1383471
33	0x3e903592	0.2816587
34	0x3df1ea48	0.11812264
35	0x3ea8143f	0.32827947
36	0x3d4a0d2e	0.049328975
37	0xbe57f2f9	-0.2108878
38	0xbd90639c	-0.07050249
39	0xbf0182d0	-0.5059023
40	0x3df919e4	0.12163141
41	0x3e926b4d	0.2859749
42	0xbda053ec	-0.07828507
43	0x3e3a2c88	0.1818105
44	0xbe2166e9	-0.15761913
45	0x3db4e354	0.08832422
46	0xbc4a1a14	-0.012335319
47	0x3ce55ad7	0.027997417
48	0xbc9f5ab2	-0.019452427
49	0xbea45910	-0.320992
50	0x3e9f41e1	0.3110495
51	0xbdfb940c	-0.12284097
52	0xbe7d0be6	-0.2471157
53	0xbed0a604	-0.4075166
54	0x3d4020a4	0.04690613
55	0xbe5ba25a	-0.21448651
56	0xbdfa6951	-0.12227119
57	0xbe131633	-0.14363937
58	0x3e105b9a	0.14097443
59	0xbe20c66d	-0.15700693
60	0xbdd58027	-0.10424834
61	0xbd808425	-0.062752046
62	0xbd08570d	-0.033286143
63	0xbe002abb	-0.125163
64	0x3dc5847a	0.096444085
65	0xbd238341	-0.039920095
66	0x3eaea96a	0.34113628
67	0xbd16985a	-0.036766388
68	0xbd2646ab	-0.040594738
69	0xbe2b777d	-0.167448
70	0xbe66a57b	-0.22524063
71	0xbefd32f6	-0.49452943
72	0xbe7466d4	-0.23867351
73	0xbd9ca502	-0.0764866
74	0xbd33d6ca	-0.04390601
75	0xbc151727	-0.009099758
76	0xbe2dbb92	-0.16966084
77	0xbe02b74d	-0.12765236
78	0x3e0aafa3	0.13543563
79	0x3e8024b6	0.25028008
80	0xbe0047c8	-0.12527382
81	0x3be87673	0.0070941984
82	0x3ebc199c	0.36738288
83	0x3e44d6b5	0.19222529
84	0x3c844bdc	0.016149454
85	0x3e168916	0.14700732
86	0x3e5442ff	0.20728682
87	0x3e4d653c	0.20058149
88	0xbd32b4a3	-0.0436293
89	0x3ebe977c	0.37224948
90	0x3e816c95	0.25278154
91	0xbd363cf5	-0.044491727
92	0xbbcd429d	-0.0062640444
93	0xbebb2156	-0.3654887
94	0x3e1a83fa	0.15089408
95	0x3d9b0fa4	0.075713426
96	0x3da98584	0.08277419
97	0xbcb57e5c	-0.02215498
98	0x3e2e78b2	0.17038229
99	0xbc27fb2a	-0.010252753
100	0x3cd4e646	0.02598871
101	0x3da31d5f	0.079645865
102	0xbd963696	-0.0733463
103	0xbd8dedf5	-0.06930152
104	0x3d7b821e	0.061403386
105	0x3d7bc54b	0.06146745
106	0xbead830d	-0.33889046
107	0x3c257ae2	0.010100098
108	0x3e79fd18	0.24412954
109	0xbe9cbdb0	-0.3061347
110	0xbe81fd6e	-0.25388664
111	0xbd69845d	-0.057010997
112	0x3db143f0	0.08655536
113	0xbc18be45	-0.009322708
114	0xbe3b63f3	-0.18299846
115	0x3df1185e	0.11772226
116	0xbe370d9f	-0.1787629
117	0x3e504d8e	0.20342085
118	0x3ea5bb0f	0.32369277
119	0xbde79007	-0.11306768
120	0x3e6dd511	0.2322581
121	0x3e07aad5	0.13248761
122	0xbecd1f65	-0.40063015
123	0x3ee4e629	0.44706848
124	0xbbf46d6a	-0.0074593322
125	0x3e53a74d	0.20669289
126	0x3ee7bfe4	0.45263588
127	0x3d67e6f5	0.056616742
128	0xbe3128b9	-0.1730069
129	0x3d50cc0f	0.050975855
130	0x3e253b97	0.16136013
131	0xbe0bf642	-0.13668159
132	0xbe80a4e3	-0.251258
133	0xbe6935e8	-0.2277447
134	0xbdb9d03c	-0.09072921
135	0xbedcd44b	-0.43130717
136	0x3c93786e	0.018001761
137	0x3e0b8f52	0.13628891
138	0x3e0f99e7	0.14023553
139	0x3e76be0a	0.24095932
140	0x3e8975a2	0.2684756
141	0x3db16889	0.086625166
142	0x3c1f0d71	0.0097077945
143	0x3d8e61d1	0.06952251
144	0x3eb8990b	0.36054263
145	0xbe224233	-0.15845565
146	0x3e951418	0.29116893
147	0xbec0f1e9	-0.37684563
148	0xbbb68be7	-0.005570877
149	0xbe0269d7	-0.12735687
150	0xbe376b0e	-0.17911932
151	0xbe586178	-0.21130931
152	0xbc899b5f	-0.01679772
153	0xbda45f45	-0.08025984
154	0x3e5e1360	0.21687078
155	0xbe80dd03	-0.2516862
156	0xbd35793f	-0.044305082
157	0x3da72de1	0.081630476
158	0xbea60867	-0.32428285
159	0xbea38b24	-0.31942093
160	0xbe993df2	-0.29930073
161	0xbec4a800	-0.38409424
162	0x3e993ba7	0.29928324
163	0xbe193f49	-0.14965548
164	0xbc528591	-0.0128492275
165	0x3e89e6b0	0.26933813
166	0xbf02b07a	-0.5105053
167	0x3df431d0	0.119235635
168	0xbe53f184	-0.206976
169	0x3e14d5fe	0.14534757
170	0x3dc28a2b	0.0949901
171	0xbd0a706c	-0.03379862
172	0xbe6322cc	-0.22181243
173	0xbe072fc7	-0.1320182
174	0xbe513c14	-0.20433074
175	0xbda11871	-0.0786599
176	0x3e2a4d38	0.16631019
177	0xbda5abee	-0.080894336
178	0x3ea398d7	0.31952545
179	0x3e5ee21a	0.21765938
180	0xbde42f16	-0.111417934
181	0x3f1fb173	0.6238014
182	0x3d9cd23e	0.07657288
183	0xbad8b8b0	-0.0016534533
184	0x3f12c426	0.5733055
185	0x3e88f17e	0.26746744
186	0xbbeca0e8	-0.00722133
187	0xbe748b1a	-0.23881188
188	0x3df00336	0.117193624
189	0xbd083b4f	-0.033259686
190	0xbcfa7fb2	-0.030578468
191	0xbe9e2b11	-0.30892232
192	0xbdae9d60	-0.08526111
193	0x3e2ecbc8	0.17069924
194	0xbd828319	-0.06372661
195	0xbea9c361	-0.33156875
196	0x3e67b2c1	0.22626783
197	0xbda64ca6	-0.08120088
198	0xbdf4fd83	-0.11962416
199	0xbe2ddb67	-0.16978227
200	0xbd31afa0	-0.04338038
201	0xbdb36421	-0.087593324
202	0xbd1784ee	-0.036992006
203	0x3dbc5eb2	0.09197749
204	0x3d6a887a	0.05725906
205	0xbdedc19c	-0.11609194
206	0x3e7d5b79	0.24741925
207	0xbeb3049b	-0.3496445
208	0xbe7652f4	-0.24055082
209	0xbeb2dc5d	-0.3493375
210	0xbe22984d	-0.1587841
211	0xba78fa29	-0.0009497726
212	0xbea6d65d	-0.3258542
213	0xbe6d335f	-0.23164128
214	0x3cac95af	0.021067468
215	0xbe977c52	-0.29587036
216	0xbe78c97b	-0.24295609
217	0x3d54896d	0.051888872
218	0x3db4d63f	0.08829927
219	0x3e9d6093	0.30737743
220	0xbe1cf872	-0.1532915
221	0xbd3bd0d9	-0.04585347
222	0x3cba840b	0.022768041
223	0xbe7d28ea	-0.24722639
224	0xbe2bbdc0	-0.16771603
225	0x3e25243a	0.161271
226	0x3d1328a2	0.035927422
227	0x3ea01ec5	0.31273475
228	0x3e944488	0.28958535
229	0x3e82956f	0.25504634
230	0xbdc8bc0c	-0.09801492
231	0xbe2c180f	-0.16806053
232	0xbeb01f5c	-0.34398925
233	0xbe878a81	-0.26472858
234	0xbe05c74c	-0.13064307
235	0xbeba9e7e	-0.36449045
236	0xbe34c5eb	-0.17653625
237	0xbdec6124	-0.115419656
238	0x3ec69a76	0.3878972
239	0x3e2e1fa1	0.17004253
240	0x3e2d2276	0.16907677
241	0xbe0db25c	-0.1383757
242	0x3ea10c55	0.3145472
243	0xbde9e0df	-0.11419844
244	0xbc907860	-0.017635524
245	0x3ec92ed2	0.39293534
246	0x3d6c510f	0.05769449
247	0xbeb027b5	-0.34405294
248	0x3e6d49bd	0.2317266
249	0xbdf2b47b	-0.1185083
250	0xbe342b0e	-0.17594549
251	0x3e39dc1f	0.18150376
252	0x3e4e86e2	0.20168641
253	0xbd977584	-0.07395461
254	0x3ec9613d	0.39332
255	0x3e5b2cbf	0.21403788

fc2.bias f4 [128]
0	0x3aef10f4	0.0018239305
1	0xbe8f2ae8	-0.27962422
2	0xbd35a7be	-0.044349425
3	0x3dba2933	0.090898894
4	0x3c7810e7	0.015140749
5	0x3eabaf55	0.33532205
6	0x3d859ecc	0.06524429
7	0x3e06e99a	0.1317505
8	0xbce1bee8	-0.027556852
9	0xbe97a705	-0.29619613
10	0xbdee7624	-0.11643627
11	0x3eb8230b	0.35964236
12	0xbda9bf67	-0.0828846
13	0x3e24e853	0.1610425
14	0xbdb91cb7	-0.0903868
15	0xbe80417c	-0.2504996
16	0xbe7e47db	-0.24832098
17	0xbe963d00	-0.29343414
18	0x3dca7f98	0.09887618
19	0xbe691e8b	-0.22765557
20	0x3d5a0d8a	0.053235568
21	0xbd758ff0	-0.059951723
22	0xbe699c27	-0.22813474
23	0x3eb7b643	0.35881242
24	0x3e1f37b1	0.15548588
25	0x3dde170b	0.10844239
26	0x3e7a1055	0.24420293
27	0xbdb42458	-0.087959945
28	0xba96576c	-0.0011470146
29	0x3d74d7a0	0.05977595
30	0x3d8608eb	0.0654467
31	0x3debb9e9	0.11510069
32	0x3e67b037	0.22625814
33	0xbdbbe650	-0.09174788
34	0x3c8aaa68	0.01692696
35	0xbd80313d	-0.062593915
36	0xbd1dc25b	-0.03851543
37	0x3e251d4e	0.1612446
38	0x3e9f217f	0.31080243
39	0x3dd213fe	0.102577195
40	0x3e01554c	0.12630194
41	0x3e69b933	0.22824554
42	0x3cf8fa06	0.030392658
43	0xbd30b4fd	-0.043141354
44	0x3d6cbe5f	0.05779874
45	0x3e05df9e	0.13073584
46	0x3d4859f5	0.048913915
47	0xbd3ca235	-0.04605313
48	0xbe870285	-0.2636911
49	0xbe4805f8	-0.19533527
50	0xbe5a3a83	-0.21311383
51	0x3eee853c	0.46586025
52	0xbe9385cb	-0.28813013
53	0x3d43588f	0.047691878
54	0xbe3bfc62	-0.18357995
55	0xbde1120d	-0.10989771
56	0xbe15eb9a	-0.14640656
57	0x3e4fbd3c	0.20287031
58	0xbe78eb62	-0.24308541
59	0xbdf3733d	-0.11887214
60	0xbe595d93	-0.21227102
61	0x3e5c34df	0.21504544
62	0xbdd8ac8c	-0.10579786
63	0xbe3575c1	-0.17720701
64	0x3ec6aa52	0.3880182
65	0x3ea5f043	0.32409868
66	0xbea03e8b	-0.31297716
67	0xbdb2cb02	-0.08730127
68	0x3e205567	0.15657578
69	0x3e850ff4	0.25988734
70	0x3de80b52	0.11330284
71	0x3e308a0e	0.17240164
72	0xbc7b6f32	-0.015346335
73	0xbe5996d7	-0.21248947
74	0x3e6b0811	0.22952296
75	0x3e3c0ac2	0.18363479
76	0xbe96afef	-0.29431102
77	0x3ed68e02	0.41905218
78	0x3d5d3910	0.054009497
79	0xbd8d3484	-0.06894782
80	0xbd9525d4	-0.07282606
81	0xbddfd672	-0.10929574
82	0xbdcb6cf1	-0.09932888
83	0xbd1bbb59	-0.038020466
84	0x3e0a4436	0.13502583
85	0x3ea410b4	0.32043993
86	0xbe4e9dcf	-0.20177387
87	0x3e941438	0.28921676
88	0x3dcd0067	0.10009842
89	0xbde5adaf	-0.11214768
90	0xbe2fdc09	-0.1717378
91	0xbe0e75a6	-0.13912067
92	0xbe30642c	-0.17225713
93	0xbdb06c98	-0.086144626
94	0xbe2ab2ac	-0.1666972
95	0x3e28171b	0.16415064
96	0xbca55a5e	-0.020184692
97	0x3cc5754b	0.024103781
98	0x3deee223	0.11664226
99	0x3e6d7f62	0.23193124
100	0x3e718426	0.23585567
101	0xbe9c9dff	-0.3058929
102	0xbec88d51	-0.39170316
103	0x3d31ed69	0.043439303
104	0xbe3e48a9	-0.18582405
105	0xbbbc89dd	-0.0057537393
106	0xbe588d35	-0.21147616
107	0xbe47a143	-0.1949511
108	0xbe8b5311	-0.27211812
109	0xbe42acbd	-0.19011207
110	0xbdb3fe4f	-0.0878874
111	0xbe771e4f	-0.24132656
112	0xbdc64e85	-0.09682945
113	0xbe05a6f4	-0.13051969
114	0x3d676674	0.05649419
115	0xbe87b3ba	-0.26504308
116	0xbd172864	-0.036903754
117	0xbe7c44e7	-0.24635659
118	0x3e916771	0.28399232
119	0x3d10e466	0.035374068
120	0xbe14a918	-0.14517629
121	0x3cf4dd36	0.029890638
122	0xbdd482ab	-0.103764854
123	0xbdb1fa52	-0.08690323
124	0xbe9de120	-0.3083582
125	0x3e2bbedd	0.16772027
126	0x3e8703ac	0.2636999
127	0x3ef836f1	0.48479417

fc3.weight f4 [101, 128]
0	0xbe59e5e3	-0.21279101
1	0x3f81d960	1.0144463
2	0xbce43000	-0.02785492
3	0xbe006498	-0.12538373
4	0x3f2daad4	0.6783879
5	0xbf05633d	-0.5210455
6	0xbe73d48e	-0.23811552
7	0xbf18bcaf	-0.5966291
8	0xbd546500	-0.051854134
9	0x3f00f959	0.50380474
10	0x3db27a7c	0.08714768
11	0xbf28a6b3	-0.6587936
12	0x3e48db26	0.19614848
13	0xbecf6236	-0.40504616
14	0xbe04c056	-0.12963995
15	0x3f800f90	1.0004749
16	0x3f6e63e1	0.93121153
17	0x3f693811	0.91101176
18	0xbf2dbc15	-0.67865115
19	0x3ee963ed	0.4558405
20	0x3e8d8f42	0.2764836
21	0x3f03fde2	0.5155927
22	0x3f0d8b75	0.5529092
23	0xbebc0975	-0.36725965
24	0xbe9e1b65	-0.30880275
25	0xbead7766	-0.33880156
26	0xbf4d21e3	-0.8012983
27	0x3f18979a	0.59606326
28	0xbe1b7808	-0.15182507
29	0xbe1afbbd	-0.15135093
30	0xbd87217e	-0.06598185
31	0xbe976b36	-0.29573983
32	0xbf28ccaf	-0.6593732
33	0x3eb21c57	0.34787247
34	0x3e27f2f2	0.1640127
35	0x3e20eb43	0.15714745
36	0x3edd3557	0.43204758
37	0xbe5e338c	-0.21699351
38	0xbf2007aa	-0.62511694
39	0xbe0c3e1e	-0.13695571
40	0xbec1c7a8	-0.37847638
41	0xbe56cca7	-0.20976506
42	0xbef9ea23	-0.48811445
43	0xbe7edb3f	-0.24888323
44	0x3ea34334	0.3188721
45	0xbda45c67	-0.08025437
46	0x3df412cc	0.11917648
47	0x3e6ae193	0.22937612
48	0x3f0b2cc6	0.54365194
49	0x3ea47966	0.3212387
50	0x3ec7a186	0.3899042
51	0xbf73d3c2	-0.9524499
52	0x3f5bd9ac	0.85879016
53	0x3e498235	0.19678576
54	0x3e920365	0.28518215
55	0x3f17fe4c	0.593724
56	0xbd28b357	-0.041186657
57	0xbee23875	-0.44183698
58	0x3edabccc	0.42722166
59	0x3f22883a	0.63489115
60	0x3ec74d21	0.38926032
61	0xbef9e582	-0.48807913
62	0x3dd65109	0.10464675
63	0x3f15200e	0.58252037
64	0xbf9f6a3f	-1.2454299
65	0xbf8b61fa	-1.0889275
66	0x3f0fbf11	0.5615092
67	0xbf1dfa4e	-0.6171006
68	0xbebf5dd7	-0.37376282
69	0xbf3c3b21	-0.73527724
70	0xbe89ee74	-0.26939738
71	0xbee15770	-0.44012022
72	0x3e41049d	0.18849416
73	0x3ecf778e	0.405209
74	0xbe222a07	-0.15836345
75	0xbf81ee3b	-1.0150827
76	0x3f37d03f	0.71802133
77	0xbf9bbf7a	-1.2167809
78	0x3ccd6bec	0.025075875
79	0xbe0a8097	-0.13525616
80	0xbf02b6e1	-0.510603
81	0x3ed3e7df	0.4138784
82	0x3f031390	0.51201725
83	0x3e03c18e	0.12866804
84	0xbef30fd8	-0.47473025
85	0xbf9047d3	-1.1271919
86	0x3f2eb1b0	0.6823988
87	0xbf262cfa	-0.6491238
88	0x3d893d81	0.06701184
89	0x3f124ef9	0.5715175
90	0x3e9eb230	0.3099532
91	0x3f0211ac	0.50808215
92	0x3f0b9534	0.5452454
93	0x3da9b1da	0.082858756
94	0x3e99ca03	0.30036935
95	0xbeb2efa4	-0.34948456
96	0xbee07213	-0.43837032
97	0xbe4b0a99	-0.19828261
98	0xbed029bd	-0.40656844
99	0xbf159cc7	-0.5844235
100	0xbf5bd791	-0.85875803
101	0x3e94f77e	0.29095072
102	0x3ecb5fd5	0.39721552
103	0xbe52dac9	-0.20591272
104	0x3f7635d3	0.9617588
105	0x3ef84e00	0.4849701
106	0x3ce67ef2	0.028136704
107	0x3f2254b2	0.63410485
108	0x3edf28a5	0.43585697
109	0x3e537ea7	0.20653783
110	0xbd6262f4	-0.05527015
111	0x3f6f1b98	0.9340148
112	0x3eeb4fea	0.45959407
113	0xbd88b972	-0.06675996
114	0xbe7b8bb4	-0.24565011
115	0x3f866618	1.0499907
116	0x3d85ace2	0.065271154
117	0x3f17fa54	0.59366345
118	0xbf264f19	-0.64964443
119	0x3d754084	0.05987598
120	0x3f0f02c2	0.55863583
121	0xbdabbc86	-0.08385567
122	0x3f0acf16	0.5422224
123	0x3e837daf	0.25681826
124	0x3f5e4c6c	0.8683536
125	0xbef9680e	-0.487122
126	0xbf59196c	-0.84804416
127	0xbfaf2637	-1.3683537
128	0xbe85d342	-0.2613774
129	0x3f69acbf	0.91279215
130	0xbc0808f7	-0.008302919
131	0xbe4c2fb9	-0.1994008
132	0x3f2b864d	0.670018
133	0xbf172618	-0.590425
134	0xbe91dc8a	-0.2848857
135	0xbf1bcbd8	-0.60857916
136	0xbd80a5fd	-0.0628166
137	0x3f16955c	0.58821654
138	0x3e0f1147	0.13971435
139	0xbf3b951b	-0.7327439
140	0x3e0e1fcc	0.13879317
141	0xbedbb255	-0.42909494
142	0xbdf1e006	-0.11810307
143	0x3f782748	0.9693494
144	0x3f72df1f	0.94871706
145	0x3f6fcbb7	0.9367022
146	0xbf2b19ea	-0.66836417
147	0x3ed4700f	0.41491744
148	0x3e946e6b	0.28990492
149	0x3eec5de1	0.46165374
150	0x3f0806a7	0.5313515
151	0xbeb8aa16	-0.36067265
152	0xbe9a258a	-0.30106765
153	0xbe911823	-0.28338727
154	0xbf3f2a7a	-0.7467419
155	0x3f21b6a2	0.631693
156	0xbe1d6155	-0.1536916
157	0xbe4952d7	-0.19660507
158	0xbd9d9471	-0.076943286
159	0xbeb93761	-0.36175063
160	0xbf365060	-0.7121639
161	0x3eb8224c	0.35963666
162	0x3e3c2a80	0.18375587
163	0x3e094772	0.1340616
164	0x3ee80696	0.45317525
165	0xbe7f480c	-0.24929827
166	0xbf393a7d	-0.7235487
167	0xbdb67572	-0.0890912
168	0xbec75f4b	-0.3893989
169	0xbdf7be24	-0.12096813
170	0xbee134b1	-0.43985513
171	0xbebb7a82	-0.36616904
172	0x3e65a16f	0.22424863
173	0xbdf02b67	-0.11727028
174	0x3e4bb343	0.19892602
175	0x3e4017e4	0.18759114
176	0x3ee9bb97	0.45650932
177	0x3eba4e9a	0.36388093
178	0x3ec8bcc4	0.39206517
179	0xbf5afcf7	-0.85542244
180	0x3f48f1c5	0.7849391
181	0x3e8c61ee	0.27418464
182	0x3e7a67c5	0.24453647
183	0x3f18a2c1	0.5962334
184	0x3cbcd060	0.02304858
185	0xbec567e8	-0.38555837
186	0x3ed2f566	0.4120285
187	0x3f0fb682	0.5613786
188	0x3eb54fee	0.35412544
189	0xbef35d40	-0.47532082
190	0x3e328b86	0.17436036
191	0x3f00b421	0.50274855
192	0xbfa41e59	-1.2821761
193	0xbf8030be	-1.0014875
194	0x3f19fe13	0.6015331
195	0xbf10d76c	-0.5657871
196	0xbecd985f	-0.40155312
197	0xbf31655f	-0.69295305
198	0xbe8a2379	-0.26980188
199	0xbee0565f	-0.43815896
200	0x3e532d3d	0.20622726
201	0x3ec3a11d	0.38208857
202	0xbe1ad4e0	-0.15120268
203	0xbf886121	-1.0654641
204	0x3f33f1d0	0.7029085
205	0xbf9e913c	-1.2388072
206	0xbc973794	-0.018459119
207	0xbdc712a2	-0.09720351
208	0xbf039353	-0.51396674
209	0x3eea6ec7	0.4578764
210	0x3f10926c	0.5647342
211	0x3e0347a7	0.12820302
212	0xbeca9f10	-0.3957448
213	0xbf8e47ef	-1.1115702
214	0x3f378552	0.71687806
215	0xbf263d31	-0.6493712
216	0x3d5591c5	0.05214097
217	0x3f193112	0.598405
218	0x3e987703	0.297783
219	0x3f0a8e5c	0.54123473
220	0x3ef6d498	0.4820907
221	0x3dd27132	0.102754965
222	0x3ea3505c	0.31897247
223	0xbeabf6bc	-0.3358668
224	0xbedfa5ce	-0.43681186
225	0xbe3439e8	-0.17600214
226	0xbeea9c13	-0.458222
227	0xbf1aa134	-0.60402226
228	0xbf4b25dd	-0.7935465
229	0x3e8b13c6	0.27163523
230	0x3eb509af	0.3535895
231	0xbe4d18c8	-0.20028985
232	0x3f6ccada	0.92497027
233	0x3ee9b0a9	0.45642594
234	0x3cf67434	0.030084707
235	0x3f2247de	0.6339091
236	0x3ea3aa7d	0.3196601
237	0x3e7d6f51	0.24749495
238	0xbdcdaa0c	-0.100421995
239	0x3f6d054f	0.92586225
240	0x3ef0f815	0.47064272
241	0xbdf0a5e6	-0.117503926
242	0xbe73b0cd	-0.23797913
243	0x3f81e772	1.0148757
244	0x3e02ec8d	0.1278555
245	0x3f0dbd8d	0.55367357
246	0xbf23996d	-0.63905984
247	0x3d8713ae	0.065955505
248	0x3f0a235a	0.5396019
249	0xbd8a88c5	-0.06764368
250	0x3ee94bb8	0.4556558
251	0x3e8a3507	0.26993582
252	0x3f5fff3b	0.87498826
253	0xbf09f565	-0.5389007
254	0xbf74dbec	-0.95648074
255	0xbfabaf1f	-1.3412818

fc3.bias f4 [101]
0	0xbf958f28	-1.1684313
1	0xbfa749ca	-1.3069394
2	0x3d01f23b	0.03172515
3	0xbcd8ed20	-0.026480258
4	0xbde99ae6	-0.11406498
5	0xbc1b4570	-0.009477004
6	0xbd1ea4cc	-0.03873138
7	0xbe1328b1	-0.14370991
8	0x3d3e32fb	0.046435338
9	0x3cc8368b	0.02444007
10	0xbd1030b2	-0.03520269
11	0xbea92a91	-0.33040288
12	0xbd836428	-0.06415588
13	0xbdb4d813	-0.088302754
14	0x3d348295	0.044069845
15	0x3e1663e3	0.14686541
16	0x3d9436ad	0.07236991
17	0x3cf0898b	0.02936246
18	0xbf9ed56d	-1.2408882
19	0x3cb261dd	0.02177518
20	0x3e2d76bc	0.16939825
21	0xbe10c074	-0.14135915
22	0xbe0e48c6	-0.13894948
23	0xbcb4db79	-0.022077309
24	0xbe23e9e9	-0.16007198
25	0xbeae47ea	-0.3403924
26	0xbe2e272d	-0.17007132
27	0xbea04784	-0.31304562
28	0x3e956b7f	0.29183576
29	0x3bd83ea1	0.006599263
30	0x3d8953cf	0.06705438
31	0x3c8cfb81	0.01720977
32	0xbcef4a3f	-0.029210208
33	0x3e8328c1	0.2561703
34	0xbcbb8392	-0.022889886
35	0x3d355393	0.044269156
36	0x3d886bc0	0.06661177
37	0xbe6dbeb6	-0.23217282
38	0xbde69df2	-0.112605944
39	0x3c29467c	0.010331746
40	0x3dfcc759	0.1234271
41	0xbdb9922e	-0.09061085
42	0x3d5a2e1b	0.053266626
43	0x3b5c5f81	0.003362626
44	0xbe860b00	-0.26180267
45	0xbd4959a2	-0.049157746
46	0x3ea6c618	0.3257301
47	0xbd9ac296	-0.075566456
48	0xbe32b7bc	-0.17452902
49	0xbe5d2521	-0.21596195
50	0xbc155556	-0.009114584
51	0xbec2a6ba	-0.38017827
52	0xbe2e8d7e	-0.17046162
53	0xbec13453	-0.37735233
54	0xbeaf191d	-0.34198847
55	0xbeb9f3d1	-0.3631883
56	0xbef09ee8	-0.46996236
57	0xbe525acd	-0.2054245
58	0xbf9c7770	-1.222395
59	0xbfa2df55	-1.2724406
60	0xbeb543c2	-0.35403258
61	0xbe4c5e84	-0.1995793
62	0xbe7ac3c3	-0.2448874
63	0xbe6f4e51	-0.23369719
64	0xbfa415ab	-1.2819113
65	0xbe8ba70d	-0.27275887
66	0xbebd6541	-0.36991313
67	0xbeac5598	-0.33659053
68	0xbfa67281	-1.3003694
69	0xbf9aa405	-1.2081305
70	0xbebac21e	-0.36476225
71	0xbeb319d8	-0.34980655
72	0xbfa86ec6	-1.3158805
73	0xbfaa598e	-1.330858
74	0xbe989fae	-0.29809326
75	0xbf9e840d	-1.2384049
76	0xbe80cb59	-0.25155142
77	0xbfa47fc6	-1.2851493
78	0xbf9d829e	-1.2305486
79	0xbeb94bb7	-0.36190578
80	0xbf96ebb2	-1.1790679
81	0xbfa11689	-1.2585002
82	0xbe849be4	-0.25900185
83	0xbe377a79	-0.17917813
84	0xbfa9d202	-1.3267214
85	0xbfa5e188	-1.2959452
86	0xbfa7ec88	-1.3119059
87	0xbea34632	-0.31889492
88	0xbf9db2b6	-1.2320163
89	0xbea484c9	-0.32132557
90	0xbe74e465	-0.2391525
91	0xbfa3ecd8	-1.2806654
92	0xbe9b8977	-0.30378315
93	0xbeabea9f	-0.3357744
94	0xbfa79c2e	-1.3094537
95	0xbfa56a9f	-1.2923163
96	0xbea44cc8	-0.3208983
97	0x3c8443d2	0.01614562
98	0xbfaa6335	-1.3311526
99	0xbf9a6f6a	-1.2065251
100	0xbe10c2a7	-0.14136754
