NLPA1/neural_lm3.pth (torch, 718565 bytes, 7 tensors)

embedding.weight f4 [101, 100]
000000 c4 35 78 3f 41 33 5c 3f 9b de 26 bf ee 65 a1 bc
       0.9695704 0.8601571 -0.6518342 -0.019701924
000010 ad ac 42 bf 9d c5 2a bf c4 f1 96 be 7e d0 53 bf
       -0.7604473 -0.66707784 -0.29481328 -0.8274001
000020 32 83 00 c0 af 77 25 3f 9b 47 6d 3f df 9d a6 be
       -2.0080075 0.6463575 0.92687386 -0.3254232
000030 36 40 86 bf bc 60 6e bf 1e 17 61 be d2 72 90 be
       -1.0488346 -0.93116355 -0.21981475 -0.282126
000040 18 8c 27 bf a4 4b 35 3f 47 3e 8c bf 84 4b 88 3f
       -0.6544814 0.70818543 -1.0956506 1.0648046
000050 c5 28 b5 3f 00 8a 92 be 33 86 72 3f 63 3c 21 3f
       1.4153067 -0.2862091 0.9473602 0.6298277
000060 c2 51 de bd 57 d8 30 bf 7a 4b d0 be 94 78 40 bd
       -0.10855438 -0.6908011 -0.40682584 -0.046989992
000070 53 62 53 3e 93 ea 91 bf 7c e0 68 bf f1 fe fc bf
       0.20642976 -1.1399711 -0.90967536 -1.9765302
000080 2a dd 2c 3f b3 38 c6 3f d7 87 4b 3f 13 56 b6 bf
       0.6752497 1.5486053 0.7950415 -1.4245018
000090 eb 99 67 bf fb dd 09 40 7e d5 b0 3e a6 d3 00 3f
       -0.90469235 2.1541736 0.34537882 0.5032295
0000a0 38 a5 8e 3f ba f0 ff be 9b b5 f2 bf 0f 0e 74 bf
       1.1144171 -0.49988347 -1.8961672 -0.9533395
0000b0 61 62 5a bf 51 b2 37 bf 2c 40 a5 3f bd 4f 70 be
       -0.85306364 -0.71756464 1.2910209 -0.23467918
0000c0 16 79 be bf 46 a5 b6 3f c8 bb 93 be 74 c6 be 3f
       -1.4880702 1.4269187 -0.28854203 1.4904313
0000d0 a7 e5 02 3f 5d be 88 bf 5c 3d 30 3e 92 9d 80 bd
       0.5113167 -1.0683094 0.17210907 -0.06280054
0000e0 1c b2 a5 3f b6 7b ba be 6a 51 15 3e b7 24 d5 3f
       1.294498 -0.3642251 0.14581838 1.665183
0000f0 f0 c5 9d bf e4 63 6e be 9a 17 c6 3d 1a 37 d7 be
       -1.2326031 -0.23280293 0.096724704 -0.42034227
000100 fb 26 9e 3e e3 80 0f be 09 b0 1e bf 4c f5 c3 bf
       0.30889115 -0.1401401 -0.6198736 -1.5309234
000110 ed 20 48 be b0 77 dc 3e 65 34 62 3f 91 eb c4 3f
       -0.1954381 0.43060064 0.883612 1.5384389
000120 f3 5a 15 3e b1 8b 43 3f 1d 82 90 3f 86 73 d1 bf
       0.14585476 0.7638503 1.1289707 -1.636338
000130 c2 d0 81 bc 74 a8 ea 3e fd 01 2c 3f ae 7c f3 bf
       -0.015846614 0.45831645 0.67190534 -1.9022424
000140 56 2f f0 be 02 9e a7 be 9b db e0 bd 84 ea ce bf
       -0.46911114 -0.32737738 -0.109793864 -1.6165318
000150 5f 77 6f 3e 6f b5 34 bf f8 17 0d bf a9 c7 22 bf
       0.2338538 -0.70589346 -0.551147 -0.6358591
000160 3b 79 19 bc 00 ba 0c 3f e5 7e 03 bf 94 89 ab bf
       -0.0093672825 0.54971313 -0.513655 -1.340136
000170 4f fc a3 bc 5e e8 47 3e 38 ed 41 bf d7 25 3d bf
       -0.020017771 0.19522235 -0.7575259 -0.73885864
000180 a5 ac 8e bf d4 6d 86 3f 1e 8e e3 3e c5 82 27 bf
       -1.1146437 1.0502267 0.44444364 -0.65433913
000190 97 8a 25 3f 3d c4 06 3f a0 b6 f3 3e fd fb 0d bf
       0.64664596 0.52643186 0.4760027 -0.5546263
0001a0 e2 c8 1e 3f b7 48 c9 3f be bb 45 3f c9 2e 89 be
       0.6202527 1.5725316 0.77239597 -0.26793507
0001b0 b3 f5 99 3f 02 50 88 bd 51 64 29 bf fe 2c ac 3e
       1.2028106 -0.06655885 -0.66168696 0.33628076
0001c0 e6 1e a0 bf cc bc 02 c0 2b 4a 55 be da c1 82 bf
       -1.250943 -2.0427732 -0.20829074 -1.0215409
0001d0 fa 53 b3 3f 5b af bd bf 1f 0d 27 bf bf d9 4f 3f
       1.4010003 -1.4819139 -0.65254396 0.8119163
0001e0 0b b3 73 3e fb 4b 5a 3d 64 a0 f4 3f 55 0b 1a bd
       0.23798768 0.053295117 1.9111447 -0.037608463
0001f0 64 3d e5 3e d8 ad 29 3e d5 06 bf 3f a8 8b 56 3f
       0.447734 0.16570222 1.492396 0.8380685
000200 4c b1 24 bf ce 2b a8 3f db a7 f6 be 46 66 98 3e
       -0.64333034 1.3138368 -0.4817494 0.29765528
000210 df e4 f8 3e 3c c7 4d bf 5a 3a 7e bf fe cd 83 bf
       0.48612115 -0.8038213 -0.9930779 -1.0297239
000220 59 05 e3 3f 43 59 a8 be 60 d4 06 bf 6d e8 97 3f
       1.7736007 -0.328806 -0.5266781 1.1867806
000230 22 5a 81 be 57 e0 ff 3e 9e d9 4d bf c2 bf 80 3f
       -0.25264078 0.49975845 -0.8041018 1.005852
000240 39 fa 82 3e 4b ff 2e 3e 08 2e 07 3f c4 2c cb 3e
       0.2558153 0.17089574 0.52804613 0.3968259
000250 3f 34 a9 3f 95 a0 61 3f 5c f8 6f 3f a1 ed 0f 3d
       1.3219069 0.88135654 0.9373834 0.03513873
000260 86 36 c1 3e 2e 70 62 bf 89 48 9c 3e cb 39 84 bf
       0.3773691 -0.8845242 0.3052409 -1.0330137
000270 66 e1 1a bf 75 74 08 3e fd 36 28 bf 28 ab 25 3e
       -0.6050018 0.13325675 -0.65708905 0.16178572
000280 0b 86 29 bf c8 56 0c 40 67 9b 5b 3f 8a 02 41 bc
       -0.6622016 2.1927967 0.85784 -0.0117803905
000290 f5 f3 e2 be 9a 66 aa 3e 90 6e df 3e 5b 74 29 3f
       -0.4432675 0.33281404 0.4363904 0.6619317
0002a0 61 94 11 3f 0d dc 2d 3f b5 70 56 be d8 4d 0a 3f
       0.56867033 0.67913896 -0.20941432 0.5402503
0002b0 ca 13 4f 3f 0a 06 f5 bf ca 71 60 bf a4 0d 2e 3e
       0.8088957 -1.9142468 -0.8767363 0.16997391
0002c0 11 45 5d 3e 81 3c bf 3f d1 65 4f be e1 13 b2 be
       0.21608378 1.4940339 -0.20253684 -0.3478079
0002d0 4b 25 4d 3d 49 66 15 3e ec 46 93 3e 7a b0 7c be
       0.050084393 0.145898 0.28765047 -0.24676695
0002e0 f6 e0 73 be da 78 6c be 9a 40 24 40 c8 00 b1 3f
       -0.23816285 -0.23092976 2.566443 1.3828363
0002f0 56 32 97 3f 83 a1 99 3e 90 8e e1 3f 3a 2b c6 3f
       1.1812236 0.30006036 1.7621632 1.5481942
000300 e3 5a 22 be 21 34 5c 3e e2 31 5e 3e 05 3f 78 3f
       -0.15854983 0.2150426 0.21698716 0.9697116
000310 4a 51 72 3d b1 35 a4 3e ed 82 e8 3f ed 35 56 3d
       0.059159555 0.32072213 1.8164955 0.05229752
000320 09 af a4 3e 8c e4 7d 3e ef 1f 07 3f 04 76 cb 3f
       0.3216479 0.24794215 0.527831 1.589539
000330 41 7e 82 3d 60 f2 46 3d 2c e0 17 be 47 f2 49 3d
       0.06371737 0.04857099 -0.14831609 0.04930332
000340 c7 66 7f be 70 b1 80 3e 47 15 9a bf 03 a9 f9 3c
       -0.2494155 0.25135374 -1.2037743 0.030476099
000350 4b 3d a8 be c9 b7 82 3e 4b ea 4e bd ab d9 5a 3c
       -0.32859263 0.25530842 -0.050516408 0.01335756
000360 1c 0b 72 3e e0 50 99 bd ec 3f 20 3e 83 31 46 3e
       0.2363705 -0.07486129 0.15649384 0.19354825
000370 eb 87 a8 bd 88 1d 83 bd 0e d9 35 bf db ac b8 3d
       -0.08229049 -0.06402117 -0.71034324 0.090173446
000380 8a 62 1c 3c c2 12 ae 3f b8 bc 59 3f 89 e2 8d bd
       0.009544978 1.3599474 0.85053587 -0.06927974
000390 bd ab f2 3e 3f fc 77 bf e1 e9 86 3f c1 8e 14 3f
       0.4739665 -0.9686927 1.0540124 0.58030325
0003a0 5d 23 83 be e4 d2 2e 3e 42 33 2f 3e d9 56 87 be
       -0.25612918 0.17072636 0.17109397 -0.26433447
0003b0 dd 18 31 bf 8f 46 5a 3e 01 cb 1c 3e 8a bb 17 be
       -0.69178563 0.21315978 0.15311815 -0.14817634
0003c0 7d 8d e7 3d 38 79 51 3e 58 27 41 3f 3e e2 9f bd
       0.113062836 0.20456398 0.7545066 -0.07806824
0003d0 df 71 87 be 82 de c7 be d9 4b 8d 3e f1 68 79 3e
       -0.26454064 -0.39036947 0.2759693 0.24356438
0003e0 3a e7 3d 3e 04 fa 39 be df 23 03 3e f3 a9 a5 be
       0.18545237 -0.1816178 0.12806652 -0.32356223
0003f0 08 dd c1 be 1d da 0a bf 33 80 00 3e df 02 01 3f
       -0.37863946 -0.54239064 0.12548904 0.50395006

fc1.weight f4 [256, 300]
000000 27 95 46 3c 76 e4 9d bd 1a b8 9f 3e 64 9f 55 bc
       0.012120522 -0.07709591 0.31195146 -0.01303849
000010 ec 16 9f 3d e5 40 6b 3e 44 08 a4 bd 95 8c a4 bd
       0.07768044 0.22973974 -0.08009389 -0.080346264
000020 a6 65 a1 3e 91 df 88 3d d0 ea 32 3e 78 07 28 3e
       0.31522864 0.06683267 0.17472386 0.16409099
000030 32 a1 17 3d 27 0a 18 3e 86 04 eb 3d 70 a6 10 be
       0.037018962 0.14847623 0.11475472 -0.14125991
000040 3a 17 be bd c6 d9 81 be 4d 64 c1 3d fc 7a c0 bd
       -0.09281774 -0.2536146 0.09442959 -0.093984574
000050 f7 0d db bc 50 b8 a1 bd a4 88 c6 bd a7 bb fb 3d
       -0.026740057 -0.07896483 -0.09694031 0.12291651
000060 94 f9 69 be eb c5 af 3d 39 5f c7 3c bb b2 00 bd
       -0.22849113 0.08582672 0.024337398 -0.03142045
000070 9a d0 a3 3e 8e a6 15 3f 71 90 ac bd fa 77 8f 3d
       0.31995088 0.5845727 -0.084259875 0.070053056
000080 3a de 48 be 92 08 8c 3e 38 3f 8e be c1 ba bc 3e
       -0.19616023 0.2735029 -0.27782607 0.36861232
000090 67 ff 83 be 02 26 24 be 4c c2 33 bd fb 10 a0 3e
       -0.25780794 -0.16030124 -0.043886468 0.31262955
0000a0 38 6e 0f 3e c9 34 23 be e9 cf 16 bd dd 34 51 3d
       0.14006889 -0.15938105 -0.036819372 0.051075805
0000b0 04 51 0b 3d ad 89 a7 3d b9 88 8d bd 56 94 ff 3d
       0.03401281 0.081805564 -0.069108434 0.12479465
0000c0 8b 55 07 3d 8e 19 64 3e 33 6e 5f be f4 80 43 bc
       0.033040565 0.22275373 -0.21819381 -0.0119326
0000d0 ec ee b0 bd d9 7c ac bd 4f 28 3f be 3f 51 ef bc
       -0.08639321 -0.0842225 -0.1866772 -0.029213546
0000e0 5a e7 13 be e6 44 98 bd b8 93 03 3e 26 ef 11 be
       -0.14443722 -0.07435016 0.12849319 -0.14251384
0000f0 c4 c2 37 3e f9 5e aa bd fd 8c 7b 3d ab cc f0 3d
       0.17945391 -0.08318896 0.061413754 0.11757787
000100 72 32 16 3e 78 cf 91 3c 19 df 29 3c a6 0b 5d 3e
       0.14667681 0.017799124 0.010368132 0.21586475
000110 a0 7e 8b bd ca a0 1b be d1 3f 62 bd 9a 62 12 be
       -0.06811261 -0.15198055 -0.05523664 -0.14295426
000120 f6 e0 09 bf 9e 82 dc 3c 59 ea a1 bd 5e 20 98 bc
       -0.5385889 0.026917752 -0.079060264 -0.018570121
000130 0d 6b dd bc 87 26 4c 3e 67 a7 32 3e 07 5e 4d be
       -0.027028585 0.19936572 0.17446671 -0.200554
000140 a1 e0 59 be 72 34 8c 3c da 40 c1 3e ff 58 6a bd
       -0.21277095 0.017114852 0.3774479 -0.05721378
000150 f6 d5 82 3d 0a 99 47 bc 99 26 e2 bd 91 33 86 3d
       0.06388466 -0.012182483 -0.11042518 0.06552804
000160 11 6f 87 3d f4 b0 b2 be 11 99 0c 3d 4a db 7d 3d
       0.06612981 -0.3490063 0.034325663 0.06197671
000170 eb f6 81 be f9 77 75 3e b6 b3 2b 3e 5a 21 90 be
       -0.25383696 0.23971547 0.16767773 -0.28150445
000180 de 9b d6 3d 28 97 6f 3d b9 1c 8c be e7 60 9b be
       0.10478948 0.058493763 -0.27365664 -0.30347368
000190 a7 1d 96 3e 98 f2 62 3e 96 85 16 3e fb 5b 51 bd
       0.29319498 0.22162855 0.14699396 -0.05111311
0001a0 bd 81 56 be e5 cc 89 bd 21 23 ba 3c 5d 26 4f 3e
       -0.20947929 -0.06728534 0.022721829 0.20229478
0001b0 82 66 4e be 0e 6b 4f 3e 42 a4 85 3c c0 af fb bd
       -0.20156291 0.20255682 0.016313676 -0.12289381
0001c0 73 af 28 bd f8 34 26 3e 1f 39 bb 3e e2 07 32 3e
       -0.041182946 0.16231143 0.36567017 0.1738582
0001d0 44 41 45 3d 0c e3 ec bd 24 bb 5f 3d a1 5c 36 3e
       0.048157945 -0.11566743 0.05462183 0.17808773
0001e0 11 2f 6e be d6 c2 18 3e ca 82 1a 3e 0a 86 08 be
       -0.23260142 0.14918074 0.15088955 -0.13332382
0001f0 58 3c 32 3e eb 52 42 3e 3e fa 55 3e a4 27 65 3e
       0.17405832 0.18976943 0.20896241 0.22378403
000200 9f 05 59 3c fe 33 54 3d 8c cc ca 3d a5 a8 2e bc
       0.013245969 0.051807396 0.099022955 -0.010660325
000210 48 af 34 3e 73 2d 76 bd e4 47 7b bd 5a 30 c7 3e
       0.1764499 -0.060101938 -0.061347857 0.38904077
000220 23 a9 10 be f5 bb 1a 3f 54 f1 05 bd b4 2c 2b 3e
       -0.1412702 0.6044305 -0.03270085 0.16716272
000230 1d c6 4e bd be 54 67 3e 94 5e 31 3e 8e 6f 0e be
       -0.050481904 0.2259092 0.17321235 -0.13909742
000240 de c2 88 3e 9d 99 38 be b6 ad 0f be 02 8d 02 be
       0.26711172 -0.18027349 -0.14031109 -0.12749103
000250 21 2a 20 be 9a ab 25 3e 28 fb 0a 3d 9b 4c 1d 3e
       -0.15641071 0.16178742 0.033930928 0.15361254
000260 c5 54 a3 3e d3 22 bc bc ee 5f a6 3b 44 1c 56 be
       0.31900612 -0.022965824 0.0050773537 -0.2090922
000270 15 70 c9 bd 59 12 84 3e 50 bd c6 3c f6 21 28 be
       -0.09835831 0.25795248 0.024260193 -0.16419205
000280 d4 7b 02 3b 4b 58 2d 3e 9b d5 ff bd 2d a1 88 bd
       0.0019910233 0.16928212 -0.12491914 -0.06671367
000290 b8 57 c7 3e 8b 35 a4 3d 81 75 71 be 6c 54 2e 3e
       0.38934112 0.08018025 -0.2357998 0.17024392
0002a0 11 2c 91 be fa 25 65 bd 61 4c 64 3d 55 5f d2 bd
       -0.28353932 -0.05594442 0.055736903 -0.102720894
0002b0 a6 5c 2c bd 24 b6 e4 3d e9 ad 4e be f3 20 5a be
       -0.042080544 0.11167553 -0.20183529 -0.21301632
0002c0 3a 51 84 bd 43 92 35 3e 91 96 54 3d 97 c1 5e 3c
       -0.06460805 0.17731576 0.051901404 0.01359596
0002d0 25 0f 42 be ef f6 5f 3d 27 84 48 bc bf 58 4c 3d
       -0.1895109 0.054678854 -0.012238539 0.049889322
0002e0 17 2e 17 3e 8f 2a 08 3d d8 c8 9f be 25 f4 7d bd
       0.14763676 0.033243712 -0.3120792 -0.062000412
0002f0 2a 55 61 3e e5 25 a5 3d 2b e6 10 be a1 db 07 be
       0.22005144 0.080638684 -0.14150302 -0.13267376
000300 63 bf 94 3c ba 42 e6 be 0f 8b 1a 3e 0b 19 83 be
       0.018157667 -0.44972783 0.15092109 -0.25605044
000310 5c 50 31 be 7f 33 30 be b7 34 01 be 27 e5 91 3e
       -0.17315811 -0.17207144 -0.12617765 0.28495142
000320 48 ee b6 bc 15 06 b7 bd c3 e5 e6 bd c9 1f 02 bc
       -0.022330418 -0.08936707 -0.11274292 -0.0079421485
000330 ae 49 1a be 6c 00 0f 3d ed c4 05 3e f4 ba bf 3d
       -0.15067169 0.03491251 0.13063402 0.0936183
000340 97 30 e9 bd 74 c0 90 3d af 4d 29 3c c0 8e 85 be
       -0.11386221 0.070679575 0.010333463 -0.26085472
000350 e0 b5 0f be 73 3c b6 3e c5 df a2 3c b0 99 2b 3e
       -0.14034224 0.35592994 0.019882092 0.16757846
000360 71 e4 a0 3e 60 62 36 3b f4 59 b9 3d e9 91 19 3e
       0.31424287 0.0027829632 0.0905036 0.14997067
000370 1d b3 47 be 0e d5 6e 3e 15 01 76 3e 9e 0c 04 3d
       -0.1950192 0.23323461 0.2402385 0.032238595
000380 58 6b 1d be 3b 6c 87 3e e2 22 8f 3e 1d c3 10 3e
       -0.1537298 0.2644976 0.279563 0.1413693
000390 8e 8a 26 3d d1 a1 b9 bd 1f af 2e 3e 60 f5 56 3d
       0.04065948 -0.09064067 0.17058991 0.0524801
0003a0 c5 5d bc 3e cd ee 29 be fb ec 1a 3e e8 c7 b3 3e
       0.3679029 -0.16595002 0.15129463 0.35113454
0003b0 47 ae 01 be b4 0e 93 bd 77 b0 0e 3e 4e 76 8e 3e
       -0.12664138 -0.07180539 0.13934503 0.27824634
0003c0 98 34 f0 bd bd 33 78 3e 68 a5 37 3e e8 49 5a 3e
       -0.117287815 0.24238487 0.17934191 0.21317255
0003d0 00 bb 3f 3e ef b2 d1 3d a2 d6 72 be 2d 77 2a 3d
       0.18723679 0.10239207 -0.23714688 0.04161756
0003e0 f4 1a 28 3e 85 1f b8 3d 43 cc 03 be b5 ae 85 bd
       0.16416532 0.08990387 -0.12870888 -0.06527463
0003f0 18 57 04 bc 1d 40 83 bd 2f f8 22 3e e0 ef ba bc
       -0.008077405 -0.06408713 0.15914987 -0.02281946

fc1.bias f4 [256]
000000 b9 2f 77 be 34 3d 8c be eb 57 a6 be 46 df 5b be
       -0.24139298 -0.27390444 -0.3248895 -0.21471891
000010 3f b2 35 be 41 c5 99 be 96 01 5f be d4 86 53 be
       -0.17743777 -0.30033305 -0.21777949 -0.20656902
000020 54 0e b2 be 7c a8 95 be 0a a3 80 be 5c ac a0 be
       -0.34776556 -0.29230106 -0.2512439 -0.313815
000030 f9 8c 90 be 98 3a 95 be 66 f4 17 be a1 49 64 be
       -0.28232554 -0.29146266 -0.14839324 -0.22293712
000040 0d 73 6f be 2c 90 1c be cb c7 5b be a6 ff 72 be
       -0.23383732 -0.15289372 -0.21462934 -0.23730335
000050 f2 27 7d be d5 fe 79 be 1d b8 c0 be 1a 26 8a be
       -0.24722269 -0.24413617 -0.37640467 -0.26982194
000060 7f a5 ba be 21 cf 8a be ee 8b 88 be a3 de a9 be
       -0.36454388 -0.27111152 -0.26669258 -0.3317767
000070 89 44 69 be d3 88 82 be 5c 17 ab be fd 6c 9b be
       -0.2278005 -0.25495014 -0.3341626 -0.3035659
000080 e1 9b 9f be f3 02 b5 be b5 a8 a6 be 2c 03 74 be
       -0.31173614 -0.35353813 -0.32550588 -0.23829335
000090 40 b0 b5 be 30 13 73 be ea f2 b2 be fc 79 79 be
       -0.3548603 -0.23737788 -0.34950954 -0.2436294
0000a0 9f 56 85 be 93 2f a9 be cc d3 45 be b6 a3 7e be
       -0.2604265 -0.3304411 -0.19319075 -0.24867138
0000b0 ea 21 49 be 44 49 6e be 57 0b 0d be 1b 79 9c be
       -0.19641843 -0.23270136 -0.13773857 -0.30561146
0000c0 44 8b 3e be 76 17 97 be 9d f6 82 be ae 8a aa be
       -0.18607813 -0.29510087 -0.25578776 -0.3330893
0000d0 60 bf 64 be 56 45 88 be 20 ea 82 be 39 dc 5e be
       -0.22338629 -0.266154 -0.25569248 -0.21763696
0000e0 79 d4 66 be c1 02 9e be a6 84 17 be a2 6b 65 be
       -0.2254199 -0.30861476 -0.14796695 -0.2240434
0000f0 69 bc c7 be 65 0b 4f be b3 95 61 be d7 14 a0 be
       -0.39010933 -0.2021919 -0.22029762 -0.312659
000100 1d 22 bd be 5e 66 b3 be 9d cf 79 be a4 e2 ba be
       -0.3694009 -0.35039037 -0.24395604 -0.36501038
000110 04 07 4a be 52 fb 8e be 1b 00 58 be af 7f e2 bd
       -0.19729239 -0.27926117 -0.2109379 -0.1105951
000120 99 ad c2 be 21 5d 94 be 3a 2b 32 be 39 b7 99 be
       -0.3802307 -0.28977302 -0.17399302 -0.300226
000130 b7 e5 80 be 32 34 78 be df 3d 9e be 31 c3 a3 be
       -0.2517526 -0.24238661 -0.3090658 -0.31984857
000140 32 3e 61 be 3c d8 a2 be 46 39 4f be 74 13 92 be
       -0.21996382 -0.318056 -0.20236692 -0.28530467
000150 e1 9d 51 be 97 ed 67 be af 45 90 be ab ce 39 be
       -0.20470382 -0.22649227 -0.28178164 -0.18145244
000160 e6 0f 72 be 41 19 18 be 11 cb 0f be ff 2c 86 be
       -0.23638877 -0.14853384 -0.14042307 -0.26206204
000170 00 4e 80 be a1 ed a2 be fc c3 aa be b3 36 83 be
       -0.2505951 -0.3182192 -0.3335265 -0.2562767
000180 b5 ae a3 be d6 39 51 be fc ed 80 be a7 6e 69 be
       -0.31969228 -0.20432219 -0.25181568 -0.22796117
000190 21 5d 7e be d9 2f 7b be c1 19 99 be f9 8c 55 be
       -0.24840213 -0.24529971 -0.2990246 -0.20854558
0001a0 8c 5a 97 be ad 9f ae be 76 d6 38 be 80 51 15 be
       -0.2956127 -0.34106198 -0.1805056 -0.14581871
0001b0 1d 2b 6e be 79 47 08 be 84 fe 4e be 1b c4 d3 be
       -0.23258634 -0.13308515 -0.20214278 -0.41360554
0001c0 d3 39 91 be d6 a9 50 be bc 82 a5 be c7 d4 8c be
       -0.2836443 -0.20377287 -0.32326305 -0.27506086
0001d0 7f 0a 1a be 28 9a 90 be 23 0b 18 be 6b bd 1b be
       -0.15043066 -0.28242612 -0.14847998 -0.15208976
0001e0 ed 2e 4c be d8 96 86 be 97 9f 9d be 6b f3 5c be
       -0.19939776 -0.2628696 -0.3078582 -0.21577232
0001f0 9f ee 29 be 13 85 a4 be d9 e3 31 be 19 92 9b be
       -0.16594933 -0.32132778 -0.17372073 -0.303849
000200 01 1c 9f be 1c 22 40 be 21 3a b5 be 86 17 97 be
       -0.31076053 -0.18763012 -0.3539591 -0.29510134
000210 a0 21 7e be bf 85 44 be 58 50 33 be 17 3e 54 be
       -0.24817514 -0.19191645 -0.17511117 -0.2072681
000220 70 29 86 be 49 ee aa be c9 65 52 be 32 e1 99 be
       -0.2620349 -0.33384922 -0.2054664 -0.30054623
000230 55 fe 95 be bc 25 95 be 2d 0d 78 be 85 28 55 be
       -0.29295602 -0.29130352 -0.24223776 -0.20816238
000240 e6 04 92 be 0d 29 80 be 4e 1c 69 be 48 3d 4e be
       -0.28519362 -0.2503132 -0.22764704 -0.20140564
000250 ae 32 3b be b8 2b 4c be c8 00 ca be 10 37 79 be
       -0.18281052 -0.19938552 -0.3945372 -0.24337411
000260 55 f6 9f be 86 c3 a6 be 11 b1 4e be e3 aa 34 be
       -0.31242624 -0.32571048 -0.20184733 -0.17643313
000270 67 25 79 be 83 70 93 be 37 20 8c be 52 82 65 be
       -0.24330674 -0.28796777 -0.27368328 -0.22412995
000280 ee 5a 65 be bf 97 91 be 0b d9 7f be 67 ed 5c be
       -0.22397968 -0.28436086 -0.24985139 -0.21574937
000290 f3 60 33 be 39 73 43 be 41 93 30 be 71 7d a3 be
       -0.17517452 -0.19086923 -0.17243673 -0.31931642
0002a0 cc 3e cd be a4 af e9 bd 56 a4 82 be ee 41 46 be
       -0.40086973 -0.11410454 -0.25516003 -0.19361088
0002b0 4e 39 b9 be 3b c4 75 be f6 88 46 be cd 3d 80 be
       -0.36176533 -0.24000637 -0.19388184 -0.2504715
0002c0 57 06 a9 be 72 40 40 be 1c 88 76 be f2 29 89 be
       -0.3301265 -0.18774584 -0.24075359 -0.26789814
0002d0 27 52 9b be 0b a0 82 be 2c 57 68 be 23 ad 73 be
       -0.30336115 -0.25512728 -0.22689503 -0.23796515
0002e0 c1 b1 74 be f9 f4 06 be b7 29 5f be 55 82 60 be
       -0.23895933 -0.13179387 -0.21793257 -0.21924718
0002f0 18 b8 20 be 41 b0 52 be 31 d5 26 be cb 04 18 be
       -0.15695226 -0.20575048 -0.16292264 -0.14845578
000300 7f 26 84 be 54 c0 72 be 0c c1 9e be 56 50 15 be
       -0.2581062 -0.2370618 -0.31006658 -0.14581427
000310 42 a6 8b be 1f 85 4c be 27 bf 22 be ce aa 60 be
       -0.27275282 -0.19972657 -0.15893231 -0.21940157
000320 09 dc a2 be 0b 55 7f be 7a a8 30 be db cf 8c be
       -0.31808499 -0.24934785 -0.17251769 -0.2750233
000330 42 99 47 be 20 1b 7f be 4c 02 b8 be 8a 6e 7e be
       -0.19492057 -0.24912691 -0.35939252 -0.24846855
000340 b8 bd 36 be bb 00 56 be ae 6d 81 be be 44 4f be
       -0.1784581 -0.20898716 -0.2527899 -0.20241067
000350 90 60 5f be 05 f1 8b be ed fc 85 be d9 58 1c be
       -0.2181418 -0.2733232 -0.2616953 -0.15268268
000360 67 ae a5 be 9c a4 ab be e5 04 86 be 0c b4 4e be
       -0.3235962 -0.33524024 -0.2617561 -0.2018587
000370 0e f2 a8 be 62 ef b8 be b2 57 da be 38 85 97 be
       -0.32997173 -0.36120135 -0.4264503 -0.29593825
000380 ad 1f b5 be e6 65 73 be 37 bc b5 be 86 28 40 be
       -0.3537573 -0.2376934 -0.3549516 -0.18765458
000390 6c 1c 64 be dc a7 ad be 44 11 86 be 5d 97 b3 be
       -0.22276467 -0.3391713 -0.26185048 -0.3507642
0003a0 01 e3 9b be 5e 53 46 be 7e e2 90 be 7f 63 89 be
       -0.30446628 -0.1936774 -0.282978 -0.26833722
0003b0 d0 03 32 be 53 af 69 be 79 67 78 be 95 3b 91 be
       -0.17384267 -0.22820787 -0.24258222 -0.2836577
0003c0 4e cc 6f be 3e 0b 50 be 3b 2c f5 be 23 71 8e be
       -0.2341778 -0.20316789 -0.47885308 -0.2782069
0003d0 2c 85 78 be 96 b5 ad be 47 29 b2 be 2e be 40 be
       -0.24269551 -0.33927602 -0.34797117 -0.18822548
0003e0 8a e4 8f be 93 68 87 be d5 21 12 be 23 22 61 be
       -0.2810405 -0.2644697 -0.14270718 -0.21985678
0003f0 84 d7 be bd a6 73 51 be 39 72 4b be 11 8f 7c be
       -0.0931845 -0.20454273 -0.19867791 -0.2466395

fc2.weight f4 [256, 256]
000000 2d 27 9f be b7 64 15 3d e8 a7 a8 3d 4b 9b 8e be
       -0.31084576 0.036473002 0.082351506 -0.27852854
000010 c7 42 1e be 97 1f cb 3d 60 b9 98 bd 32 8f b0 bd
       -0.15455161 0.09918135 -0.074572325 -0.08621062
000020 5b 9b e3 be 4e ed 29 3e e2 13 a9 3d 64 30 33 3e
       -0.44454464 0.16594431 0.082557455 0.17498928
000030 7d 79 b6 bd 15 a4 b6 be ca 22 09 3e 9a b8 a2 3d
       -0.08909891 -0.3567206 0.13392177 0.07945366
000040 65 23 0d bc f2 38 0c be fb 25 b4 bd ac 33 9b be
       -0.008614396 -0.13693598 -0.08796307 -0.3031286
000050 db f7 48 be 8d f0 9f bd 3c 91 80 3d 21 e4 4e be
       -0.196258 -0.07809553 0.06277701 -0.20204212
000060 84 d3 db 3d 11 18 69 be ee 93 9e bd 55 c8 47 bd
       0.10733703 -0.22763087 -0.07743059 -0.048775036
000070 de a2 88 be 7e ed 4a be 55 d0 2d 3d 0e 1d b9 3d
       -0.26686758 -0.19817159 0.04243501 0.09038745
000080 74 62 5b bd 5d c7 22 be 28 02 8a 3e a2 b2 8a bd
       -0.05356069 -0.15896364 0.2695477 -0.06772353
000090 e3 48 4f 3e d2 48 15 be dd 7d 81 be de 99 11 3c
       0.20242648 -0.1457856 -0.2529134 0.008886782
0000a0 77 64 9f be 1e 7a 94 be 81 f2 58 be 88 04 71 bd
       -0.31131336 -0.28999418 -0.21186258 -0.058842212
0000b0 ae 14 a8 be 6e e9 36 3d bd c3 30 be c2 0b b4 3d
       -0.32828277 0.04465621 -0.17262168 0.08791305
0000c0 91 45 06 be 6b 7a 82 bd df d4 d4 bd 6a a6 1b 3e
       -0.13112475 -0.063710056 -0.103921644 0.152002
0000d0 f8 db 6b be 27 e7 97 be e6 09 41 be 5b 9e 89 be
       -0.2303313 -0.29668543 -0.18851432 -0.26878628
0000e0 60 62 2c 3e 1e a6 11 bf 48 b4 4a be 86 9b 76 3c
       0.16834402 -0.568941 -0.19795334 0.015051728
0000f0 d4 03 bf bd 54 ca 96 be 3d ed a9 be b9 ee 71 3c
       -0.09326902 -0.2945124 -0.3318881 0.014766389
000100 97 7a 81 be 9a 89 f5 bd 5e f3 9a 3d a0 ae d5 bd
       -0.2528884 -0.11989136 0.0756595 -0.10433698
000110 00 42 b3 3d 23 2c a1 be 54 1e dc bd b7 d5 bd bc
       0.08752823 -0.31478986 -0.10747972 -0.023173196
000120 ae c6 14 be 63 07 94 be c2 50 78 3e a1 bb 62 bd
       -0.14528915 -0.28911886 0.24249557 -0.055354718
000130 b7 e9 61 3d a8 36 5b bd 59 81 0e 3e 8d c3 43 be
       0.05515453 -0.05351892 0.1391653 -0.19117565
000140 ec 12 20 bd 74 7c d6 bd 7f 88 81 be 4d ac 33 be
       -0.039080545 -0.10472956 -0.2529945 -0.17546196
000150 d9 78 aa be 7a 75 73 be 48 b3 a0 be b3 18 32 be
       -0.33295324 -0.23775283 -0.3138678 -0.17392235
000160 0a 41 af bd e7 2a 16 bd 69 3a 1a bf fc 2a e4 bc
       -0.08557327 -0.03666201 -0.60245377 -0.027852528
000170 50 81 94 bd f7 8b da be fa e1 0e 3d 71 09 05 3d
       -0.07251227 -0.4268491 0.034883477 0.032479707
000180 cb 9e 0d 3e 8e 25 05 3e 4c 0f 9f be f0 96 50 bd
       0.13830106 0.13002607 -0.31066358 -0.050925195
000190 ca e7 9b 3d 9b 59 b6 3e c4 be cc be 60 12 67 bd
       0.0761257 0.3561524 -0.39989293 -0.05641401
0001a0 ed 42 49 bd f7 ef 4d bd 3f d1 4f be 77 8b d3 bd
       -0.04913609 -0.050277676 -0.20294665 -0.10329335
0001b0 e2 22 20 be 62 35 bf 3c 6d 17 12 3e c1 e1 29 bc
       -0.15638307 0.023340885 0.14266749 -0.010368765
0001c0 66 96 a4 bd 83 5d bb be b8 3e ff bd ea 1d 93 bd
       -0.08036499 -0.3659478 -0.124631345 -0.0718344
0001d0 b1 67 fe 3d 05 1f d2 bd b3 9f da bd f2 dc 90 3c
       0.12422121 -0.10259823 -0.106749915 0.01768348
0001e0 d6 a0 b0 3d 75 89 06 bf 83 bb 5b 3e ba a4 8f 3d
       0.08624427 -0.5255349 0.21458249 0.07013841
0001f0 88 5b 95 bc 23 7f b2 be a2 8e 92 be c1 16 31 3e
       -0.018232122 -0.34862623 -0.28624445 0.17293836
000200 9e 08 0a bd 2e 3f 40 3e 77 a4 b5 bc c1 e1 07 be
       -0.033699624 0.18774101 -0.02217315 -0.13269712
000210 c2 df 18 3e 8f 7d b2 bd 8a 17 8b be 3f 92 ff 3b
       0.14929107 -0.08715355 -0.27166396 0.0077994163
000220 e4 a7 50 bd 49 af 99 3e f2 23 0b be 5a 80 83 3d
       -0.050941363 0.30016544 -0.13587931 0.064209655
000230 2a 1e 7d be cb 80 8a bd 7a 5b c2 3d 6f 9a b9 3d
       -0.24718538 -0.067628466 0.09490104 0.09062659
000240 d6 5d 25 be 27 67 0d 3b ef e8 7a bd 85 06 ad be
       -0.16149077 0.0021576376 -0.0612573 -0.33794037
000250 3f 71 61 bd a9 ad 54 bd cb 29 c3 bc 34 80 1c be
       -0.05503964 -0.051923428 -0.02382364 -0.1528328
000260 32 41 30 3e 2b 30 d0 3d cd 79 36 be b8 84 07 bd
       0.1721237 0.10165437 -0.17819901 -0.033085555
000270 99 a9 cb bd 9b fa 83 be 63 d4 40 be 1b b4 e4 bd
       -0.099444576 -0.25777134 -0.18831019 -0.11167165
000280 65 e0 03 be 46 9b bc be 36 5c 6c 3d 25 26 ad be
       -0.12878568 -0.36837214 0.057705127 -0.33818164
000290 f2 af ac be 38 10 dd 3d d5 7b d8 3d 8d 6d 79 bc
       -0.33727986 0.10794109 0.10570494 -0.015223873
0002a0 9d d8 ef 3d 2e 07 f2 bd 14 de 24 3d f1 eb f8 bd
       0.117112376 -0.11817776 0.040250853 -0.12154377
0002b0 63 d9 ff 3e 0c 6b 15 3d d9 b9 02 3d 7a bc 69 be
       0.4997054 0.03647904 0.03191552 -0.22825804
0002c0 31 22 f3 3c a4 17 7b 3d 18 89 2a be 6a 7e 21 bb
       0.02967939 0.061301842 -0.1665386 -0.0024642
0002d0 06 55 2a 3b b5 7f 7b be b3 9f 0c 3e 17 86 b2 3c
       0.002599062 -0.24560435 0.13732795 0.021792455
0002e0 f2 b8 7c bd d8 52 04 bf ae 3d 14 3d 99 41 86 bd
       -0.061699815 -0.5168891 0.036191635 -0.065554805
0002f0 8a b5 02 3d d0 df ba be 6e 18 1a be ea 71 ce bc
       0.03191141 -0.3649888 -0.15048382 -0.025200803
000300 4c 6b d6 be e0 7b 95 be d9 78 fd bd c0 18 c2 bb
       -0.41878736 -0.29196072 -0.123765655 -0.0059233606
000310 4e d6 3d be b1 96 69 be 78 a9 db 3d 9a 51 ed bd
       -0.18538782 -0.2281139 0.10725683 -0.1158783
000320 f4 6e 96 be b2 5a 14 3e 74 9e 56 be d0 16 fc bd
       -0.29381526 0.14487723 -0.20958883 -0.12309039
000330 5f e6 57 be 4f c0 9d bc e5 45 23 bd 84 5a d0 be
       -0.21083973 -0.019256739 -0.03986158 -0.40694058
000340 94 d6 2e bd d8 aa fa 3d 69 68 2a 3c 8d ff 2a be
       -0.042685106 0.12239617 0.01040087 -0.16699047
000350 05 1a 76 be c5 e3 1a be a7 b5 19 3d 95 2b 52 3b
       -0.24033363 -0.1512595 0.037526753 0.0032069434
000360 e6 e3 6c 3d 37 4c 33 bd fa 42 03 be c9 b4 a7 3d
       0.05783453 -0.043773856 -0.12818518 0.08188779
000370 a7 74 fa bd bc fe dd bc e7 f4 83 3e cb 15 c9 be
       -0.12229281 -0.027099006 0.25772783 -0.3927444
000380 48 58 d1 bd 0e b7 fc bd 57 fe 2f 3e 8d 49 1b 3e
       -0.102219164 -0.123396024 0.17186867 0.15164776
000390 1f 93 50 be 30 fc a0 3e 29 52 51 be ca aa 15 3d
       -0.20368622 0.31442404 -0.20441498 0.03653983
0003a0 69 11 be be 8d 52 f2 bb 4f 60 1c be a1 f2 5a ba
       -0.37122658 -0.0073950947 -0.15271114 -0.00083521946
0003b0 b7 80 14 be d6 57 83 bd 88 7d b7 3e ca 85 02 3d
       -0.14502226 -0.06413238 0.3583796 0.031865872
0003c0 c3 07 d0 bb d6 9f cc ba 42 6d 16 3d 50 94 bb be
       -0.0063485815 -0.00156116 0.03672529 -0.3663659
0003d0 b6 27 8b be ee 39 2e 3d f5 66 8a 3d c3 2d 8a be
       -0.27178735 0.042535715 0.06757919 -0.26988038
0003e0 48 49 97 bd 41 c2 ed ba a3 91 73 bc d2 02 df 3d
       -0.07387024 -0.0018139557 -0.0148662655 0.1088921
0003f0 c8 3c 50 be 91 e7 25 be c5 2d 57 bd b2 33 cc be
       -0.20335686 -0.16201617 -0.052533884 -0.3988319

fc2.bias f4 [256]
000000 61 5a 33 bf 68 05 13 bf 17 71 cd be 83 a3 71 be
       -0.7005978 -0.57430124 -0.40125343 -0.23597531
000010 69 c4 50 be a1 0f 96 be 68 7b fd 3e 01 4f 68 be
       -0.20387425 -0.293088 0.49508214 -0.22686388
000020 7e 7f 8f be 64 8d cd be e0 f4 78 be cc b2 cb 3b
       -0.28026956 -0.40146935 -0.24312162 0.0062163826
000030 6e e7 c8 be 18 fb f2 be 13 db 2a be 66 4e a7 be
       -0.39239067 -0.47457194 -0.16685133 -0.32677
000040 ef 86 a7 be 21 12 42 be 27 f7 05 bf a3 1b 83 be
       -0.32720134 -0.18952228 -0.5233025 -0.25607023
000050 b1 d1 27 3d 4c fd d9 be a8 ce ce be 7a 42 bd be
       0.04097146 -0.42576063 -0.4039204 -0.3696478
000060 aa ef 80 be fb 31 9d be 16 24 86 be de 9c 17 bf
       -0.2518285 -0.30702195 -0.26199406 -0.59223735
000070 71 97 af be 29 d5 0f bf 6a 41 ca be 86 31 f8 be
       -0.34295228 -0.5618463 -0.39503032 -0.48475283
000080 bc 08 8c be f2 87 14 be 83 e6 a7 be f7 91 7f 3b
       -0.27350414 -0.14504984 -0.32793054 0.0038996914
000090 ff aa 07 bf bd 0e 5b be d7 81 a3 be 43 5a 36 bd
       -0.52995294 -0.21392341 -0.31934997 -0.044519674
0000a0 72 97 b9 be de 43 05 bf f5 36 cc be 5a f8 0a bf
       -0.36248356 -0.5205668 -0.3988568 -0.54285204
0000b0 9a e3 df be 26 4e aa be fc 57 bc be df ea de be
       -0.43728334 -0.33262748 -0.36785877 -0.43538567
0000c0 43 57 aa be 36 07 93 be f3 a6 a2 be bb 20 59 be
       -0.332697 -0.2871644 -0.31767997 -0.21203892
0000d0 ae 2a 05 bf 3f 26 e5 be da ca 84 be 48 e2 08 bf
       -0.5201825 -0.44755742 -0.25936013 -0.5347028
0000e0 e8 17 20 bf 45 67 d6 be 6b 2d c2 be b4 23 01 be
       -0.6253648 -0.41875663 -0.37925276 -0.12611276
0000f0 64 d8 da be 95 2b 14 bf d9 a1 0b be 02 57 7f be
       -0.42743218 -0.57879 -0.13635959 -0.24935535
000100 c8 fd 1d be 99 1d 05 bf 73 e1 bc 3e 1a 2f b0 be
       -0.15428841 -0.5199829 0.36890754 -0.34410936
000110 2c 65 19 bf b3 c4 60 be b7 cf 72 bd 27 ee 4c be
       -0.5992 -0.21950035 -0.059280124 -0.20012723
000120 d1 bf e4 be 27 00 31 bf 5b 24 09 be af a2 4e be
       -0.44677594 -0.6914086 -0.13392775 -0.20179246
000130 7a f7 3c be 22 96 dd be 7c fe 5b be 31 2b f5 be
       -0.1845378 -0.43278605 -0.21483797 -0.47884515
000140 e3 eb 7e be 12 b0 ae be 43 07 ee be 2a 6d 2f bf
       -0.24894671 -0.34118706 -0.46489915 -0.68525946
000150 0b 99 dd be bc fd e6 3d cd 26 be be 10 9b dd bd
       -0.43280825 0.11278865 -0.37138978 -0.108205914
000160 96 d7 9b be 62 15 eb be 69 b9 06 bf 4e c7 d5 be
       -0.30437917 -0.4591475 -0.52626663 -0.4175362
000170 fe 71 c8 be 14 78 8b be 94 d4 39 3e 02 9e 16 bf
       -0.3914947 -0.2724005 0.18147498 -0.5883485
000180 e4 9d b0 be af 44 03 bf 20 f7 b7 be db 76 b4 be
       -0.3449546 -0.5127668 -0.3593073 -0.3524693
000190 28 59 8f be 04 d8 13 bf 8d e1 d8 be 27 67 ec be
       -0.27997708 -0.5775149 -0.42359582 -0.4617245
0001a0 cc 49 4c be 78 39 22 bf a9 04 2d bf 9c 90 00 bf
       -0.19950026 -0.6336894 -0.67585236 -0.50220656
0001b0 27 73 a3 be 37 3f e9 be ec 6c b6 be fa 11 18 bf
       -0.31923792 -0.45556042 -0.35629976 -0.5940243
0001c0 1a ba 2c bf a1 84 d0 be 3a 52 14 bf c3 e6 14 bd
       -0.6747147 -0.40726188 -0.5793797 -0.036352884
0001d0 ef a5 6a be 97 a9 a9 be a3 80 cf bb 3f d0 e3 be
       -0.22914861 -0.331372 -0.0063324734 -0.44494817
0001e0 c1 19 1e bf 15 f8 6e bd 55 79 7c be 06 03 7e be
       -0.6175805 -0.05834206 -0.2465566 -0.24805841
0001f0 79 af 32 be 3f 44 f7 3e 10 a7 59 3d 7c 7a af be
       -0.1744975 0.48294255 0.05313784 -0.34273136
000200 a9 00 d9 be 82 e7 84 bd d5 04 8d be 8d 03 27 3e
       -0.42383316 -0.06489469 -0.2754275 0.16309948
000210 48 06 ab be 10 26 9d be e7 0e af be 90 3d 4a be
       -0.3340323 -0.30693102 -0.34191057 -0.19750047
000220 d4 49 d0 be a3 ce 14 bf 46 ac e9 be 12 19 5d be
       -0.40681326 -0.581278 -0.45639247 -0.21591595
000230 9f 95 2d be 1e 11 27 bf da ab 12 bf b3 7e 52 be
       -0.16951607 -0.65260494 -0.57293475 -0.20556144
000240 25 89 2b bf 4c 02 90 3e a8 cb 92 bd 91 6d b5 be
       -0.6700614 0.28126752 -0.071677506 -0.35435155
000250 ca d5 06 bf 75 c3 e4 be 33 d3 cc be 93 ae 25 be
       -0.52669966 -0.44680372 -0.40004882 -0.16179876
000260 be 5b a3 be 72 10 ba be e0 bd 96 3d 74 1e b2 be
       -0.3190593 -0.36340672 0.073604345 -0.3478886
000270 2a 95 99 3e 02 91 3f bd d6 ab b8 be 33 e6 00 3e
       0.29996616 -0.04676915 -0.360686 0.12587814
000280 44 54 64 be 7c d5 01 be 29 bd 6b be e4 6a 8c be
       -0.2229777 -0.12679094 -0.23021378 -0.274253
000290 1c be a9 be 09 9d 95 be a8 41 70 bd 8c 97 c1 3d
       -0.33152854 -0.2922137 -0.058656365 0.094527334
0002a0 58 8a 6c be 0e d5 5d be 51 cc fa be 8a 1e ef bd
       -0.23099649 -0.21663305 -0.48984006 -0.11675747
0002b0 d0 56 bb be 8c 69 01 bf f6 4f 0a bf 62 35 ee be
       -0.3658967 -0.50551677 -0.5402826 -0.46525103
0002c0 a1 73 43 bb b3 1c cf be 97 1f ff be bf 3d b3 be
       -0.002982356 -0.40451583 -0.4982879 -0.35008046
0002d0 df c6 9d be e9 24 96 be a4 3e de be 58 2e b7 be
       -0.3081579 -0.29325035 -0.43407166 -0.35777545
0002e0 b0 e1 0c bf ad 3e c2 be 43 02 9b 3d d8 f7 d0 be
       -0.5503187 -0.37938443 0.07568791 -0.4081409
0002f0 3c f6 b2 be 32 54 88 3e 89 d5 88 be 4d 23 f9 bc
       -0.34953487 0.26626736 -0.26725414 -0.03041234
000300 5b 80 79 3e 8b 3a 67 be 49 61 ec be 1a fd e5 be
       0.2436537 -0.22580926 -0.46167973 -0.44919664
000310 21 ea 14 bf b1 f8 85 bd 78 f9 09 bf 06 2f c3 bd
       -0.5816975 -0.06541575 -0.53896284 -0.095304534
000320 35 08 30 be 5c 0e 53 be e2 aa bb be ed bd d4 be
       -0.1719063 -0.20610946 -0.3665381 -0.41551152
000330 d3 5e 2a bf 8c f2 a8 be 85 2f fd bc 90 10 f1 be
       -0.6655094 -0.3299755 -0.030906448 -0.4708295
000340 2d 70 a8 be 8b b0 fb be 22 18 73 be 97 4c e4 be
       -0.32898083 -0.4915813 -0.23739675 -0.44589683
000350 b8 c7 03 bf 38 9e e0 be e2 52 43 be 94 13 1d be
       -0.5147662 -0.4387071 -0.19074586 -0.153395
000360 b7 b5 8b be 50 32 ab be ac 84 80 be d1 b0 91 be
       -0.27287075 -0.33436823 -0.2510122 -0.28455213
000370 58 0e 99 be 59 2b 15 bf fc 41 0f bf f2 27 95 be
       -0.29893756 -0.5826927 -0.5596006 -0.29132038
000380 30 79 d1 be b2 87 2b bf 1f 0e 84 be 9e 40 76 be
       -0.4091277 -0.6700393 -0.25792024 -0.24048087
000390 1c fa 0f bf f3 5e b2 bd 61 02 2a 3e 09 16 56 be
       -0.5624101 -0.087095164 0.1660247 -0.20906843
0003a0 78 72 0c bf 26 d8 97 3d 99 b5 9a be e4 9d dc be
       -0.54862165 0.07414274 -0.30216673 -0.4308921
0003b0 8e a0 b7 be ba 22 82 3d b3 c1 12 bf 0a 59 1d 3e
       -0.3586468 0.0635428 -0.5732681 0.15365997
0003c0 f0 50 0c bf 4e 48 32 bf d8 66 61 bc 1e 8f e5 be
       -0.54811 -0.6964158 -0.01375743 -0.44835752
0003d0 81 d5 cd be 59 6b 90 be d3 91 0c 3e 1a 73 ce be
       -0.40201953 -0.282069 0.13727503 -0.4032219
0003e0 4c d3 83 3e 0e 17 f6 be 3d ca cb be ff ef 1d bf
       0.25747144 -0.48064464 -0.39802733 -0.6169433
0003f0 0e 17 62 be 74 47 41 bf 9f c4 fd bd d9 52 02 bf
       -0.22079107 -0.75499654 -0.12391018 -0.50907665

fc3.weight f4 [101, 256]
000000 b3 91 5c be 8c 58 58 3d 19 2e 83 be 58 78 87 3c
       -0.21539955 0.05281882 -0.25621107 0.016536877
000010 38 3d 14 bf 28 7f 1e bf 70 07 ce bf 7e c7 11 3e
       -0.5790591 -0.61912775 -1.609602 0.14236256
000020 fe 8f d8 be 96 70 8b 3d 11 8e 62 bf ea 57 14 bf
       -0.42297357 0.068085834 -0.88498026 -0.57946646
000030 b9 c0 30 bf 4a 74 a6 be db 0c 0b bf 47 1c d8 be
       -0.6904407 -0.32510597 -0.5431649 -0.42209074
000040 e5 f8 04 3f 05 28 68 3e 7e ce 9a bf 44 1c b7 3e
       0.5194228 0.22671516 -1.2094266 0.35763752
000050 9b 87 51 be e8 63 6a be 33 dc 37 be 4e fc bc be
       -0.20461886 -0.22889674 -0.17955093 -0.36911243
000060 8b 4d cb bf 13 2d 6f be 3f 55 e7 be 24 da c2 be
       -1.5883039 -0.23357038 -0.45182225 -0.38057053
000070 0e a9 ca be 34 79 4b be be 28 76 bf 38 8b fd be
       -0.39582103 -0.19870454 -0.9615592 -0.49520278
000080 6e ca bb be f3 8f 47 bf 3c e8 c7 be c8 2a fc bf
       -0.3667788 -0.77954024 -0.39044368 -1.9700556
000090 76 5d 42 3e 1e b8 37 3e 5b 79 99 bf fc de b0 bf
       0.18980965 0.17941329 -1.199016 -1.381805
0000a0 92 f2 cd be 07 41 5b be c0 a0 f0 be ad 4e 11 bf
       -0.4022413 -0.21411525 -0.46997643 -0.56760675
0000b0 9f 3e 01 bf a2 12 12 3e f4 36 18 be 6a ce 22 be
       -0.5048618 0.1426492 -0.14864713 -0.15899053
0000c0 c1 44 84 bf 64 61 1f bc 10 eb 72 be 86 90 04 3e
       -1.0333482 -0.00972781 -0.23722482 0.12945756
0000d0 97 e2 81 be 86 cc a0 be 42 52 12 be 73 2f bb be
       -0.25368187 -0.3140604 -0.14289191 -0.36559638
0000e0 49 4e a6 be ac 88 2c bf d7 04 ed be fd e6 b5 be
       -0.32481602 -0.67396045 -0.46292755 -0.35527793
0000f0 2a 04 f6 be 5f 4a 37 be ec 35 12 be 23 d4 42 bf
       -0.48050052 -0.17899464 -0.14278382 -0.76104945
000100 51 92 10 bf 4d 2d f0 be 05 ea 51 bf 23 28 c6 bd
       -0.5647326 -0.46909562 -0.8199771 -0.09675624
000110 f8 0f 91 be 69 67 40 bf ba 55 84 bf 74 b8 b5 bd
       -0.28332496 -0.7515779 -1.0338662 -0.08873072
000120 3d eb 68 bf ab ef 01 be 06 e4 89 be 3a a1 c0 3d
       -0.90983945 -0.12689082 -0.2693178 0.094057515
000130 1b 0d 07 bf 45 44 1e bf 57 d5 aa be c2 ae 9b be
       -0.5275437 -0.6182292 -0.3336589 -0.30406767
000140 dd f1 bc be 32 f1 ef be f8 71 b8 bd ec ab f4 bd
       -0.36903277 -0.46863705 -0.09006113 -0.11946854
000150 35 17 60 3c ac c0 44 bf a3 08 b3 3e 41 a0 ae be
       0.013677408 -0.76856494 0.34967527 -0.3410664
000160 d0 37 bd be 84 a8 4e be 75 69 46 bf fc b7 d7 bb
       -0.36956644 -0.20181471 -0.77504665 -0.006583212
000170 95 c1 ad be da 8f 28 bb ce df a5 bf 2c 06 50 be
       -0.33936754 -0.0025720508 -1.2958925 -0.20314854
000180 b2 9b 1b bd 25 86 38 bf 59 6c bd be cd 03 1d 3e
       -0.03799028 -0.7207969 -0.36996725 0.15333481
000190 fb f4 9c be 81 6a 50 3d 7b 24 f4 bd 6e 4c 39 be
       -0.30655655 0.05088282 -0.119210206 -0.18095562
0001a0 f0 d0 07 bb 82 2f e3 3e 46 2e b4 3d dd 61 8d be
       -0.0020723902 0.44372183 0.087978885 -0.27613726
0001b0 ce ff 47 bf 1f ca bc 3e bc 59 0c bf 3b 9d 3a be
       -0.781247 0.36872956 -0.54824424 -0.18224041
0001c0 e9 65 af 3e be 55 ce be 65 25 02 3f 7f 4d b8 be
       0.3425744 -0.4029979 0.5083831 -0.35996625
0001d0 9a 98 d5 be 96 c8 a7 be b5 dd 82 bf 45 e9 ef bc
       -0.41717988 -0.32770222 -1.022391 -0.029286036
0001e0 9f c8 a6 be 80 d1 30 bf d2 35 81 bf fd e3 99 bd
       -0.32574937 -0.6906967 -1.009455 -0.075141884
0001f0 76 b9 74 3c ac 8b c6 be 2e 6d 3b 3d 1d 4a e7 be
       0.014936795 -0.38778436 0.04575842 -0.4517373
000200 62 95 d6 bd 9e be 5a bf 2d b5 15 3e c7 4f a3 bf
       -0.10477711 -0.8544711 0.14619894 -1.2758721
000210 e0 11 88 bd 69 c5 a0 bd 4d 26 68 3e 55 bc c6 bd
       -0.066440344 -0.07850153 0.2267086 -0.0970389
000220 36 8b 97 bd d7 5c 89 bd 19 91 06 be a7 d1 c0 be
       -0.07399599 -0.06707161 -0.13141288 -0.37659952
000230 7d 1c dd be 5d f9 83 bf d8 7a 38 3d f6 51 fb be
       -0.43185797 -1.0310475 0.045039028 -0.4908597
000240 ad 38 8a bd c2 39 1a bf 2e c3 12 bf 41 a7 27 bf
       -0.06749091 -0.6024438 -0.5732907 -0.65489584
000250 52 8b db 3e b8 81 05 be 3a 3c b9 be 2b b0 6e be
       0.4287973 -0.13037765 -0.36178762 -0.2330939
000260 22 9b 1a bf e3 6d 87 bd 1c b8 40 be fd 1b 56 be
       -0.60392964 -0.06612756 -0.18820232 -0.20909114
000270 22 4b 80 bf ae a0 8e bf 3f bb 39 3e 81 c6 43 c0
       -1.0022929 -1.1142786 0.18137835 -3.0589907
000280 dd 80 00 be e7 75 84 be 67 7f 20 bf 95 3b c4 be
       -0.12549157 -0.25871202 -0.626944 -0.38326707
000290 13 18 f9 be ab 8f 2e be fe f9 e6 be a7 56 6a c0
       -0.4865118 -0.17046992 -0.45112604 -3.6615388
0002a0 d4 d8 d5 be c1 b4 e2 bd 59 e3 7c bf 28 43 1d bf
       -0.4176699 -0.11069632 -0.98784405 -0.614306
0002b0 ed 3a 13 bf 5a 44 08 bf 9a b9 44 bf 6e 74 23 be
       -0.5751179 -0.53229296 -0.76845706 -0.15962383
0002c0 9b 0c ac bd 66 7c b7 be 8e c4 47 be 6e c9 5c bc
       -0.08400842 -0.35837096 -0.19508573 -0.013475759
0002d0 79 cb 75 bf 67 2b b3 be a2 17 3e bf 58 19 39 bf
       -0.960136 -0.3499405 -0.7425481 -0.72304296
0002e0 f8 a0 21 bf 83 ee b8 be ba 4a 26 bf 5c 80 7c bf
       -0.63136244 -0.3611947 -0.64957774 -0.9863336
0002f0 20 6c cb be 2d d7 a9 bf b4 9f 41 3b ef 4c d9 bf
       -0.3973093 -1.3268791 0.0029544653 -1.6976603
000300 85 ce 90 bf a6 03 13 3e 88 88 f6 3d d0 8f 9b be
       -1.1313025 0.1435686 0.1203776 -0.30383158
000310 ab dd ba be 98 98 24 3e d4 0f 0a be 62 82 5a bf
       -0.36497244 0.16073835 -0.134826 -0.853552
000320 ac be e9 be 36 12 c7 bf 27 ff 03 bf 16 a4 85 be
       -0.45653284 -1.5552433 -0.51561207 -0.2610175
000330 c8 17 46 bf 43 1d 29 be 88 c6 db be 28 d5 41 be
       -0.7738004 -0.16515069 -0.42924905 -0.18928969
000340 de 9a 89 bf b4 9c 6a bf 47 d8 16 bf 31 22 31 bf
       -1.0750387 -0.9164536 -0.58923763 -0.69192797
000350 9f 72 cd be e2 1c f7 bb 69 c6 02 c0 39 bf ea 3b
       -0.4012651 -0.007541285 -2.04336 0.007163909
000360 5b cd 9a 3c 90 70 e6 3d 70 41 04 bf e6 ec 23 3e
       0.01889675 0.11251938 -0.5166235 0.16008338
000370 48 a5 ab be 75 6c 5d 3b 5e 8d 94 3d f0 42 58 bf
       -0.33524537 0.003378657 0.07253526 -0.8447714
000380 ca bf 90 be 3e 9d a4 3d 4d 0d d2 be 71 cf f3 be
       -0.28271323 0.08037804 -0.41025773 -0.47619203
000390 91 15 24 bf 46 dd 41 bf af 7a 00 bf 63 fa 71 bf
       -0.6409541 -0.7572826 -0.501872 -0.94522685
0003a0 ba 59 52 3d 75 30 0a bf 06 b4 34 bf 88 a6 79 3d
       0.0513551 -0.5398019 -0.70587194 0.060949832
0003b0 68 4f 1a be 08 68 52 be f2 b4 88 3e 31 b0 26 bf
       -0.15069354 -0.20547497 0.2670055 -0.65112597
0003c0 f3 eb 23 bf 0c de df bd 92 7f b3 bf 9a 9d 60 be
       -0.64031905 -0.10931024 -1.4023306 -0.2193512
0003d0 9e bc 10 be 03 b2 25 be 98 fb d7 bf 05 f3 32 bf
       -0.14134452 -0.16181187 -1.6873655 -0.6990207
0003e0 48 9b b8 bf 6b 28 05 bf 40 a1 b6 bf 38 d9 0f 3a
       -1.4422388 -0.520148 -1.426796 0.0005487385
0003f0 8e 42 a6 be 47 15 a3 be 0d 3c c9 be 2c bb 0f 3e
       -0.32472652 -0.3185217 -0.39303628 0.14036244

fc3.bias f4 [101]
000000 02 a5 2b c0 88 f8 2e c0 b5 a4 46 3e a2 06 fb be
       -2.6819463 -2.7339191 0.19398768 -0.49028498
000010 58 36 7d be cd 9f 2f 3e ee d4 e9 3e 04 12 a5 be
       -0.24727762 0.17150803 0.45670265 -0.32240307
000020 f9 1b 1d be 98 a1 99 be 4e 59 38 3c 9f be 10 bf
       -0.15342702 -0.300061 0.011251761 -0.56540865
000030 93 28 88 be 7f e5 62 bd 9b 02 90 bd 9e 17 14 3f
       -0.26593456 -0.055394646 -0.07031747 0.57848537
000040 97 38 bd 3d 90 fb 8a be 5e 1e 2a c0 4b 83 c4 bc
       0.09239309 -0.27145052 -2.6581035 -0.023988387
000050 31 66 bc 3e 89 c7 e9 3e f0 ab c4 be 53 5c bc be
       0.36796716 0.45660046 -0.38412428 -0.36789188
000060 e1 f2 c6 be 0d df 08 bf cb 94 21 be a3 37 12 bf
       -0.38857177 -0.5346535 -0.15779416 -0.57116145
000070 00 c4 1b 3f 58 81 a3 3d b2 6d 16 be 23 64 42 be
       0.6084595 0.07983655 -0.14690283 -0.18983512
000080 22 1f 08 bf eb b5 b3 3e 98 c6 c8 be 3f dd 1c be
       -0.53172505 0.3509973 -0.39214015 -0.15318774
000090 47 3c af 3e 02 3a 06 bf ae ba e2 be dd 4b b4 bd
       0.34225675 -0.5243226 -0.4428305 -0.08803532
0000a0 cf bf bc bd ab 2e c3 be 05 92 57 be c2 07 9a be
       -0.09216272 -0.38121542 -0.21051796 -0.30084044
0000b0 63 c6 5b be ee 77 52 be 17 cd a2 3e 1b 49 6c 3d
       -0.21462397 -0.20553562 0.31797096 0.057686906
0000c0 5a 2e 02 bf dd b9 f1 be d9 a3 b0 3d 90 68 5d be
       -0.50851977 -0.47212115 0.086250015 -0.21621919
0000d0 1f 5f 1f bf 26 57 08 be b9 6b fd be 21 7a 0f bf
       -0.6225452 -0.13314494 -0.49496248 -0.5604573
0000e0 35 43 5b bf a1 2c 0c bf 96 23 28 c0 19 ca 26 c0
       -0.85649425 -0.547556 -2.627172 -2.606085
0000f0 84 f7 1d be 74 ec fe be f5 82 80 be 79 cb 21 bf
       -0.15426451 -0.49789774 -0.25099912 -0.632011
000100 dd 7a 25 c0 f0 9d b0 be c0 77 f6 be ec ca de be
       -2.585624 -0.34495497 -0.48138237 -0.43514192
000110 51 78 2a c0 9a c2 28 c0 88 80 04 bf f5 a3 51 bc
       -2.6635935 -2.6368775 -0.51758623 -0.012795438
000120 f4 2c 25 c0 c2 51 27 c0 41 89 0d be 92 cd 29 c0
       -2.5808687 -2.614365 -0.1382189 -2.653172
000130 74 2d 68 be 9b b6 2a c0 91 79 2b c0 95 e1 df be
       -0.22673589 -2.6673954 -2.6792948 -0.43726793
000140 39 9a 2c c0 78 ac 2b c0 1d 76 a1 be b3 3a 97 be
       -2.696913 -2.6824017 -0.31535426 -0.2953697
000150 d9 cb 2a c0 d1 9d 2a c0 d6 10 25 c0 3b a4 15 bf
       -2.6686919 -2.6658823 -2.5791526 -0.5845372
000160 bd ca 27 c0 18 75 d0 be be 1d 5b bf de 61 28 c0
       -2.6217492 -0.40714335 -0.8559226 -2.6309733
000170 45 05 0e be 86 05 e9 be a0 ac 2a c0 5e 2a 2a c0
       -0.13869198 -0.45512027 -2.6667862 -2.658836
000180 64 62 1e bf b2 0c c6 3e 72 b7 2a c0 3d c6 2a c0
       -0.6186888 0.3868156 -2.6674466 -2.6683495
000190 e7 57 95 be
       -0.29168627
