NLPA1/neural_lm1.pth (torch, 248999 bytes, 5 tensors)

embedding.weight f4 [101, 100]
00000000: c435 783f 4133 5c3f 9bde 26bf ee65 a1bc
00000010: adac 42bf 9dc5 2abf c4f1 96be 7ed0 53bf
00000020: 3283 00c0 af77 253f 9b47 6d3f df9d a6be
00000030: 3640 86bf bc60 6ebf 1e17 61be d272 90be
00000040: 188c 27bf a44b 353f 473e 8cbf 844b 883f
00000050: c528 b53f 008a 92be 3386 723f 633c 213f
00000060: c251 debd 57d8 30bf 7a4b d0be 9478 40bd
00000070: 5362 533e 93ea 91bf 7ce0 68bf f1fe fcbf
00000080: 2add 2c3f b338 c63f d787 4b3f 1356 b6bf
00000090: eb99 67bf fbdd 0940 7ed5 b03e a6d3 003f
000000a0: 38a5 8e3f baf0 ffbe 9bb5 f2bf 0f0e 74bf
000000b0: 6162 5abf 51b2 37bf 2c40 a53f bd4f 70be
000000c0: 1679 bebf 46a5 b63f c8bb 93be 74c6 be3f
000000d0: a7e5 023f 5dbe 88bf 5c3d 303e 929d 80bd
000000e0: 1cb2 a53f b67b babe 6a51 153e b724 d53f
000000f0: f0c5 9dbf e463 6ebe 9a17 c63d 1a37 d7be
00000100: fb26 9e3e e380 0fbe 09b0 1ebf 4cf5 c3bf
00000110: ed20 48be b077 dc3e 6534 623f 91eb c43f
00000120: f35a 153e b18b 433f 1d82 903f 8673 d1bf
00000130: c2d0 81bc 74a8 ea3e fd01 2c3f ae7c f3bf
00000140: 562f f0be 029e a7be 9bdb e0bd 84ea cebf
00000150: 5f77 6f3e 6fb5 34bf f817 0dbf a9c7 22bf
00000160: 3b79 19bc 00ba 0c3f e57e 03bf 9489 abbf
00000170: 4ffc a3bc 5ee8 473e 38ed 41bf d725 3dbf
00000180: a5ac 8ebf d46d 863f 1e8e e33e c582 27bf
00000190: 978a 253f 3dc4 063f a0b6 f33e fdfb 0dbf
000001a0: e2c8 1e3f b748 c93f bebb 453f c92e 89be
000001b0: b3f5 993f 0250 88bd 5164 29bf fe2c ac3e
000001c0: e61e a0bf ccbc 02c0 2b4a 55be dac1 82bf
000001d0: fa53 b33f 5baf bdbf 1f0d 27bf bfd9 4f3f
000001e0: 0bb3 733e fb4b 5a3d 64a0 f43f 550b 1abd
000001f0: 643d e53e d8ad 293e d506 bf3f a88b 563f
00000200: 4cb1 24bf ce2b a83f dba7 f6be 4666 983e
00000210: dfe4 f83e 3cc7 4dbf 5a3a 7ebf fecd 83bf
00000220: 5905 e33f 4359 a8be 60d4 06bf 6de8 973f
00000230: 225a 81be 57e0 ff3e 9ed9 4dbf c2bf 803f
00000240: 39fa 823e 4bff 2e3e 082e 073f c42c cb3e
00000250: 3f34 a93f 95a0 613f 5cf8 6f3f a1ed 0f3d
00000260: 8636 c13e 2e70 62bf 8948 9c3e cb39 84bf
00000270: 66e1 1abf 7574 083e fd36 28bf 28ab 253e
00000280: 0b86 29bf c856 0c40 679b 5b3f 8a02 41bc
00000290: f5f3 e2be 9a66 aa3e 906e df3e 5b74 293f
000002a0: 6194 113f 0ddc 2d3f b570 56be d84d 0a3f
000002b0: ca13 4f3f 0a06 f5bf ca71 60bf a40d 2e3e
000002c0: 1145 5d3e 813c bf3f d165 4fbe e113 b2be
000002d0: 4b25 4d3d 4966 153e ec46 933e 7ab0 7cbe
000002e0: f6e0 73be da78 6cbe 9a40 2440 c800 b13f
000002f0: 5632 973f 83a1 993e 908e e13f 3a2b c63f
00000300: e35a 22be 2134 5c3e e231 5e3e 053f 783f
00000310: 4a51 723d b135 a43e ed82 e83f ed35 563d
00000320: 1435 b03e 97ad 3a3e b101 2f3f b450 c43f
00000330: 91f7 e23d 7196 eb3d adc6 3ebe 820e 703e
00000340: a937 82be a314 463e bffc a5bf 8bdc 413e
00000350: b373 9cbe d77a 933e 8579 eabd 5deb 47bd
00000360: f423 833e 79bd b7be 8a0c c73d c85f a73b
00000370: a6c4 3dbd dbc1 c5bc 27e3 41bf f03a aa3b
00000380: 3a62 8fbc 4888 ab3f 8bb5 693f 3fb2 83bd
00000390: 90c4 043f 04e6 8fbf 71de 883f bc99 5e3f
000003a0: 75db 7bbe f987 d23e 7894 b73d 65e0 99be
000003b0: fabf 5abf 01a7 a03e 617e 793e a5a5 45be
000003c0: 0d4a f43d 516b c03e 7d67 543f eaf5 bfbd
000003d0: 2933 c6be 72da f7be 2ab6 aa3e 50f2 633e
000003e0: 88c1 9e3e 060d d5be f301 9b3e 4567 d0be
000003f0: 5c83 f1be 239b 3cbf 9904 f7b8 7f59 163f
0.9695704 0.8601571 -0.6518342 -0.019701924 -0.7604473 -0.66707784 -0.29481328 -0.8274001
-2.0080075 0.6463575 0.92687386 -0.3254232 -1.0488346 -0.93116355 -0.21981475 -0.282126
-0.6544814 0.70818543 -1.0956506 1.0648046 1.4153067 -0.2862091 0.9473602 0.6298277
-0.10855438 -0.6908011 -0.40682584 -0.046989992 0.20642976 -1.1399711 -0.90967536 -1.9765302
0.6752497 1.5486053 0.7950415 -1.4245018 -0.90469235 2.1541736 0.34537882 0.5032295
1.1144171 -0.49988347 -1.8961672 -0.9533395 -0.85306364 -0.71756464 1.2910209 -0.23467918
-1.4880702 1.4269187 -0.28854203 1.4904313 0.5113167 -1.0683094 0.17210907 -0.06280054
1.294498 -0.3642251 0.14581838 1.665183 -1.2326031 -0.23280293 0.096724704 -0.42034227
0.30889115 -0.1401401 -0.6198736 -1.5309234 -0.1954381 0.43060064 0.883612 1.5384389
0.14585476 0.7638503 1.1289707 -1.636338 -0.015846614 0.45831645 0.67190534 -1.9022424
-0.46911114 -0.32737738 -0.109793864 -1.6165318 0.2338538 -0.70589346 -0.551147 -0.6358591
-0.0093672825 0.54971313 -0.513655 -1.340136 -0.020017771 0.19522235 -0.7575259 -0.73885864
-1.1146437 1.0502267 0.44444364 -0.65433913 0.64664596 0.52643186 0.4760027 -0.5546263
0.6202527 1.5725316 0.77239597 -0.26793507 1.2028106 -0.06655885 -0.66168696 0.33628076
-1.250943 -2.0427732 -0.20829074 -1.0215409 1.4010003 -1.4819139 -0.65254396 0.8119163
0.23798768 0.053295117 1.9111447 -0.037608463 0.447734 0.16570222 1.492396 0.8380685
-0.64333034 1.3138368 -0.4817494 0.29765528 0.48612115 -0.8038213 -0.9930779 -1.0297239
1.7736007 -0.328806 -0.5266781 1.1867806 -0.25264078 0.49975845 -0.8041018 1.005852
0.2558153 0.17089574 0.52804613 0.3968259 1.3219069 0.88135654 0.9373834 0.03513873
0.3773691 -0.8845242 0.3052409 -1.0330137 -0.6050018 0.13325675 -0.65708905 0.16178572
-0.6622016 2.1927967 0.85784 -0.0117803905 -0.4432675 0.33281404 0.4363904 0.6619317
0.56867033 0.67913896 -0.20941432 0.5402503 0.8088957 -1.9142468 -0.8767363 0.16997391
0.21608378 1.4940339 -0.20253684 -0.3478079 0.050084393 0.145898 0.28765047 -0.24676695
-0.23816285 -0.23092976 2.566443 1.3828363 1.1812236 0.30006036 1.7621632 1.5481942
-0.15854983 0.2150426 0.21698716 0.9697116 0.059159555 0.32072213 1.8164955 0.05229752
0.34415495 0.18230282 0.68361956 1.5337129 0.11082376 0.11503304 -0.18630476 0.23443034
-0.2543309 0.1934381 -1.2967757 0.18931787 -0.30557021 0.28804657 -0.11448959 -0.048808444
0.25613368 -0.35886744 0.097191885 0.0051078536 -0.046330117 -0.024140289 -0.7573723 0.005195014
-0.017502893 1.3400965 0.9129264 -0.06430482 0.5186243 -1.124207 1.0692884 0.8695333
-0.24595435 0.41119364 0.08963865 -0.30054012 -0.85449183 0.31377414 0.24364616 -0.1930147
0.119281866 0.37581876 0.8297041 -0.09373076 -0.38710907 -0.48408848 0.33342105 0.22260404
0.31007028 -0.416115 0.30274925 -0.40703788 -0.47170532 -0.7367422 -0.00011778734 0.5873031

fc1.weight f4 [128, 300]
00000000: e5b7 35bc 62ee 7dbd 3b3b b73d a713 75bd
00000010: ea78 acbd f219 9b3d 5fa2 4c3e 20b4 2b3e
00000020: 6f89 9ebd 9b00 32be e6ea 18be 72ca 883d
00000030: d6b6 7f3c de8d b73d 0067 273d e295 643d
00000040: 44b6 39be 0cc8 81be b45f 723c fd2b f43d
00000050: b511 bb3d 7e07 873e 5fe6 873d fb1c eebd
00000060: 8194 8bbd 901b 86be cede ddbd a39c 683e
00000070: b44a 6abe ae2a b1bd 01ec 61bd 9601 38be
00000080: f9b9 0d3d 198a fdbc 071b 0b3e d442 82be
00000090: a904 2d3c 82f0 53bd a363 9d3c 182b cebd
000000a0: ca2d 273e b707 6e3e 4c81 d7bd f868 5bbc
000000b0: f57a 243e e282 453e f6de 2cbe b29b 9e3d
000000c0: a78e 453d e59e 783e f36a 8cbd 73a5 3cbe
000000d0: 5f85 ecbc ca85 3cbe 44e3 9abd 6bba 65bd
000000e0: fd72 8e3d e13b 32bc f65f 543e e659 953d
000000f0: fe40 5d3e dc2c 43be 8d37 34be 2b2c 213e
00000100: c540 923e 8887 c93d a81a e73c ccc7 8abd
00000110: 28f9 c43d 3525 b63d faea a9bd b4a6 efbd
00000120: 15bf 8d3d e49a 07be f7bb 883d ad69 0a3e
00000130: 5bef 6b3e c37f 32be 01be 80be 16db 55be
00000140: 0b94 cc3d 3583 4fbe 8ee7 cdbd f704 d6bd
00000150: 53c5 743e 8855 21be d9b0 a8bc ac54 b3bd
00000160: b48a c33c 720b 72bd 3631 fd3c faa2 5b3e
00000170: 470a 93be c913 923e b4c7 ac3d 06d0 a2bc
00000180: dc75 adbe 1b51 8dbe 8c28 bdbe 0615 a63e
00000190: 4645 3cbe 070c 333c fae4 653d e140 113e
000001a0: a271 d0bc ba26 abbd eba9 ec3d 038b 71be
000001b0: 9b58 93bc 0683 3a3e a610 58ba 93d4 993d
000001c0: 523c 24bd 6066 8fbe 5a14 c43d 2178 243e
000001d0: 4ad3 93be fb10 96be 9cf1 e5bd 08a6 b3be
000001e0: 18d0 c5bd 7672 343d 7019 4a3e b0ab 50be
000001f0: 7f92 403c 14e7 a4be bab1 9ebd 1d37 693e
00000200: a494 0f3e cb64 09be 82af d4be e736 debd
00000210: 9fd5 e53c f445 2ebd d945 b83c 4f75 703e
00000220: 17c3 f43d 53f3 063e 03a5 0b3d 6ed1 4a3e
00000230: 34d9 33bc dadc e7bc d1a2 a0be 8c5c 0abc
00000240: f5de 4b3e 50eb 983d 7fb3 1abe b921 89be
00000250: 6136 b4bd d682 1c3e 99ae 62bd ae16 40bd
00000260: aab9 393e 751a 9b3c 2a30 213e cebc b13c
00000270: 91a6 a8be ec91 ae3c 4dce a23d 36cb b63e
00000280: bf7e 8cbc 9bd6 373e 02fd c5bd 8efb 31bd
00000290: b9e7 d5bd cb19 443d 557f a43e 1c68 5c3e
000002a0: d95f 9fbd 3870 cabd 368b 45bd 9a86 85bd
000002b0: 9e18 f33d 3edf d3bd 18bc b93e 5c70 eebd
000002c0: 74a7 29ba e707 7f3e cd37 bbbd df16 603e
000002d0: c646 b4be 8649 fbbd 0c72 4f3e a2f9 c93d
000002e0: f4a2 a2bc ef32 043e fde2 1cbd a566 19be
000002f0: ada9 92bd cf3a 4cbc a19e 79be a1e2 c03d
00000300: 2b5b 59be 97e2 8bbd 32ea 5c3d 0f2f 7d3d
00000310: 934a 66bd 0265 4b3d 5078 773d 53d7 f8bc
00000320: 15d9 48bd 3735 7e3c 622b 0ebd 31b9 6abd
00000330: 81e6 123d e330 6f3e e225 cd3e 804b 6bbd
00000340: 7f62 c8bb 0177 1cbe 3021 87bc 06cd 823e
00000350: 57d3 a3be 8505 ed3e 4090 3d3d 6aac 61be
00000360: 3659 a4bd f8f5 9f3c e9d9 4abc 4912 d63d
00000370: 356f d93d 96bc a63d 48da 0b3e e109 6c3d
00000380: 26c2 8cbe 361e 943d 581d 28bd 101d b03e
00000390: 30b3 98bd 1d9b bdbd d014 02bd 8e80 ffbd
000003a0: aa24 80bc 7149 e33c e570 853d afc0 36bd
000003b0: 7e7e 9bbd c30d 853d 38e7 00bd 8424 803d
000003c0: b1ae 363e 7412 623c c697 74bd f8e0 703d
000003d0: 3fcc 1cbe 209a ac3c 01e1 babd 7cd1 a73e
000003e0: 1306 20be 3df8 513e 3767 4bbe 8eb8 08be
000003f0: e559 843d 781d 7abe dead 55bc 9b85 2e3e
-0.011091207 -0.061994918 0.08946844 -0.059833195 -0.084215 0.07573308 0.19983815 0.16767931
-0.07741057 -0.17383043 -0.14933357 0.066792384 0.015607556 0.08962606 0.040869713 0.055807002
-0.18135935 -0.25347936 0.014793325 0.119224526 0.09134237 0.26372904 0.06635737 -0.11626621
-0.06815434 -0.26192904 -0.10833512 0.22716002 -0.2288006 -0.08650719 -0.05515671 -0.17969355
0.034601185 -0.03094964 0.13584529 -0.2544161 0.010560193 -0.051743038 0.01921255 -0.10066813
0.16326061 0.2324513 -0.10522708 -0.013391726 0.1606253 0.19288209 -0.16881928 0.0774454
0.048231747 0.24279363 -0.068563364 -0.18422489 -0.02887219 -0.18410411 -0.07562879 -0.056085985
0.06955526 -0.010878534 0.20739731 0.072925374 0.21606824 -0.19060081 -0.17599316 0.15739505
0.2856504 0.09840304 0.028210953 -0.067763895 0.09617835 0.088938154 -0.08296771 -0.11701718
0.06921212 -0.1324268 0.066764764 0.13516875 0.23040526 -0.1743155 -0.2514496 -0.20884356
0.099891745 -0.20264895 -0.10053931 -0.10450166 0.23903398 -0.15755284 -0.02059214 -0.08756384
0.02386985 -0.059092946 0.030907255 0.2144889 -0.28718778 0.2853072 0.08436528 -0.019874584
-0.33878982 -0.2760094 -0.36944997 0.32437915 -0.183858 0.0109281605 0.056126572 0.14184906
-0.02544481 -0.08356996 0.11555847 -0.23588185 -0.017986586 0.18214044 -0.0008242227 0.075112484
-0.04009659 -0.28007793 0.09574194 0.1606145 -0.28872138 -0.2930983 -0.11227724 -0.3508761
-0.09658831 0.04405447 0.19736266 -0.20377994 0.011753677 -0.3220755 -0.077487424 0.2277493
0.14021546 -0.13417356 -0.41540152 -0.108503155 0.028055964 -0.04254718 0.022494243 0.2348225
0.11951273 0.13178758 0.034092914 0.19806454 -0.010977078 -0.028303552 -0.3137422 -0.008444916
0.1990927 0.07466757 -0.15107535 -0.2678354 -0.087994345 0.15284285 -0.05534229 -0.04689663
0.18137231 0.018933514 0.1574103 0.021696474 -0.3293958 0.021309815 0.07949505 0.35701913
-0.017150281 0.17952959 -0.09667398 -0.043452792 -0.10444588 0.04787616 0.32128397 0.2152409
-0.07781953 -0.09884685 -0.048228465 -0.06519814 0.1186993 -0.103453144 0.36276317 -0.116425246
-0.0006471791 0.24905358 -0.091415025 0.21883725 -0.35210246 -0.12269883 0.20258349 0.09862067
-0.019853093 0.12910055 -0.03830241 -0.14980562 -0.07161269 -0.012465193 -0.24376918 0.09418226
-0.21226184 -0.06830328 0.053934284 0.061812457 -0.056223463 0.049656875 0.060417473 -0.030376112
-0.04903515 0.015515617 -0.03470934 -0.05730552 0.035864357 0.23358493 0.40067965 -0.05744505
-0.0061152573 -0.15279771 -0.016495317 0.25547045 -0.31997177 0.46293274 0.046280146 -0.22038427
-0.08024828 0.019526467 -0.012381055 0.10452706 0.10616914 0.08141439 0.13657486 0.05762661
-0.27491874 0.07232325 -0.04104361 0.34397173 -0.07456052 -0.09258101 -0.03175813 -0.12475692
-0.015642483 0.02774498 0.065156735 -0.04461735 -0.07592486 0.064967655 -0.031470507 0.06256965
0.17840077 0.013798345 -0.059715055 0.058808297 -0.15312289 0.021069586 -0.09124947 0.3277701
-0.15627317 0.20504852 -0.19863592 -0.13351652 0.064624585 -0.24425304 -0.013041941 0.17043154

fc1.bias f4 [128]
00000000: aff1 ccbe 79f0 6dbe 99fd 7ebe 1d4e 89be
00000010: 851f b9be 1f83 8fbe f17b 3abe b4bb 5dbe
00000020: 1077 1cbe 8b70 9fbe ed7e 47be 1176 5dbe
00000030: 4f8e 93be 10c4 cdbd 934f c0be e419 2bbe
00000040: 50f1 7dbe 9a1a eebe 3870 fbbd bc64 69bd
00000050: 08a0 bebe 05b4 d8be 7a3b 74be 074e 9bbe
00000060: 5765 88be e6e3 41be 323d cebe c508 b1be
00000070: 352c 98be 2fd5 51be c5f6 b5be 6d2f cabe
00000080: 04b7 7ebe 3a2d 9dbe fd48 98be cddb d1be
00000090: 5134 b0be 00d3 b6be fda8 25be 3c66 abbe
000000a0: 7e6b a1be 1872 3bbe 3f24 9bbe 4d94 70be
000000b0: 13cf c9be 0ca7 06bf aae2 04be 49c2 8bbe
000000c0: 1286 8bbe e950 c3be f7d2 6ebe 2611 94be
000000d0: 5ebf 93be 8fe8 76be ef59 3fbe c4a7 74be
000000e0: 7898 9fbe aa94 8ebe 29c6 a3be 0866 4abe
000000f0: 4cfd 77be ba9b 94be f8a2 9fbe d7a7 91be
00000100: e1d7 93be 733f a03b 0045 b3be 9a67 9cbe
00000110: 105b c9be e13c aabe cddf 2cbe 9a06 88be
00000120: 9584 ccbe 97f5 14be 0626 9bbe 6e4b c4be
00000130: a9a0 8abe d037 1fbd f3cf 7ebe 2785 98be
00000140: d0d3 b1be 9a02 acbe dcbb 89bd 19cf 81be
00000150: 4347 55bc 7fe0 57be 79b5 afbe 76c6 a1be
00000160: 90af 5cbe 3612 9ebe 7b1d bdbe 8dca c4be
00000170: e88e 97be ae23 62be f66e 94be 9702 36be
00000180: e3dd 87be f717 96be 543a 1dbe e19a 0dbd
00000190: 622d 7ebe a79c 7abe 5ed8 2ebe e7d5 53be
000001a0: abcc 46be 1ea4 65be 315c 8ebe 2751 cdbe
000001b0: 1dfe 79be f01b a3be 4e6b 59be 8553 02be
000001c0: f58a 84be 3041 86be 697a 69be d44f 51be
000001d0: f268 48be 888f b1be 6b9d 6bbe 330d fbbd
000001e0: 4175 41be 833c 15be aec8 5abe c437 89be
000001f0: f039 a5be 7361 50be 6930 2bbe 5725 89be
-0.4002814 -0.23236264 -0.24901427 -0.26817408 -0.3615686 -0.28029725 -0.18211342 -0.21653634
-0.15279794 -0.3114055 -0.19482012 -0.2162707 -0.2881951 -0.100471616 -0.3756071 -0.16709095
-0.24799085 -0.4650467 -0.122772634 -0.056980833 -0.3723147 -0.42324844 -0.23850814 -0.30332968
-0.26639816 -0.18934593 -0.40281063 -0.34577003 -0.29721227 -0.2049148 -0.35539833 -0.39489308
-0.24874502 -0.30698568 -0.29743186 -0.40988007 -0.34414914 -0.35707855 -0.16177745 -0.33476436
-0.31527323 -0.18305242 -0.3030109 -0.23494072 -0.39415798 -0.52598643 -0.1297709 -0.27296665
-0.27250725 -0.38147667 -0.23322664 -0.28919333 -0.2885694 -0.24112152 -0.1868665 -0.23892123
-0.31171012 -0.27847797 -0.31987122 -0.19765484 -0.24217719 -0.2902506 -0.31179023 -0.28448364
-0.2887564 0.0048903762 -0.3501358 -0.30547792 -0.39327288 -0.33249572 -0.16882248 -0.26567537
-0.39944902 -0.1454681 -0.30302447 -0.38338798 -0.270757 -0.038871586 -0.24884014 -0.29789087
-0.34731913 -0.33595735 -0.067252845 -0.25353315 -0.013017478 -0.21081732 -0.3431814 -0.31596726
-0.21551347 -0.3087327 -0.36936554 -0.38435784 -0.29601216 -0.22083923 -0.28990906 -0.17774425
-0.26536474 -0.2931516 -0.15354282 -0.034571532 -0.24822 -0.2447382 -0.17074725 -0.20687066
-0.19414012 -0.22425887 -0.2780471 -0.40100977 -0.24413343 -0.31857252 -0.2123234 -0.12727173
-0.25887266 -0.2622161 -0.22800602 -0.20440608 -0.19571283 -0.34679818 -0.23009269 -0.12258377
-0.18892385 -0.14573865 -0.21365616 -0.26800358 -0.32270765 -0.20349674 -0.16717686 -0.267863

fc2.weight f4 [101, 128]
00000000: 1379 1bbf ef12 96be 2aa0 98be 41a9 8bbf
00000010: 451b 4ebf 3472 1bbf e1d6 ffbe b14e e3be
00000020: d4f7 0cbf 614b cfbe 7d96 e1be 0e45 edbe
00000030: be0c e0be 63de cabe cdc6 2dbf 9f09 18bf
00000040: 158f b6be 7d6a 94be 6247 efbe 7902 17bf
00000050: 0826 d2be ef79 38bf 2edb 92be 4005 2abf
00000060: d90e 0fbf 0204 76be fb9f 68be 8bf5 4cbe
00000070: e5bb d8be 6e9f 91be 24d2 8ebe ac35 9abe
00000080: e4e6 5cbe fa6e 4ebe 5539 bcbe ee63 54be
00000090: 7333 41bf f3df 13be eab3 1abf f256 85be
000000a0: 40d3 78be c3ef 45be 14b0 36bf 261b 2cbf
000000b0: 4d15 65be 107f 96be a06c 26bf 17b9 57be
000000c0: ca04 00bf a08a 5cbe cf82 2abf 1eaf 97be
000000d0: 808e a1be d139 3ebf 4942 b5be 2802 ccbe
000000e0: 0084 4fbf 0239 8abe 25cc 16bf f0b2 36bf
000000f0: 19d1 dabe 70b4 bebe c806 46be 0987 94be
00000100: 62d9 a0be fe9b 8dbf b761 7bbe fae2 09bf
00000110: baf0 20bf c3cc 48bf 0ba6 42bf 1a49 1abf
00000120: ff2c 00bf 5eaf 1cbf 88d6 05bf 4c28 afbe
00000130: 525c fcbe a11d 3abf 911f a8be 645b acbe
00000140: ad6f 70be f815 b3be cf3d 3bbf fed6 21bf
00000150: 3895 b4be b66c c5be ad8c a4be ded9 c2be
00000160: 398d 06bf 8ca7 2bbe 508e dabe 7dcc 9cbe
00000170: 7b9c 30bf 9b20 e1be 72f1 debe a3ae 39bf
00000180: 8276 95be 01bd a8be b4c8 8ebe f360 05bf
00000190: 42cd cebe ec6c 99be d048 9dbe 7532 2fbf
000001a0: ebf2 c9be 1ec7 9cbe 3e91 f7be 2bdf a4be
000001b0: c726 a3be 1dca d1be 556f c3be 8f8c 05bf
000001c0: bde2 02bf 4cc2 dbbe 579c 90be ed48 9ebe
000001d0: dccc 54bf 88ae e5be b86c 4cbe e55c 0fbf
000001e0: 86c1 b3be f98e ffbe 6bd8 c9be b6b4 d2be
000001f0: 1a73 13bf efe0 a0be 3f3d 9fbe 773c 23bf
00000200: 04f2 26bf b5d1 b7be 2903 70be 9efb 84bf
00000210: 4711 4bbf b4dd 1dbf 336f 04bf 832e 03bf
00000220: 2d3d eebe 11a6 c2be 4df0 dbbe 6488 04bf
00000230: 0440 cfbe 8ae8 c4be 3215 37bf c517 1ebf
00000240: 0d0c bdbe d9fc 69be 2b08 eebe 8701 26bf
00000250: 3309 cfbe e90d 23bf 801e a9be 573c 36bf
00000260: a893 05bf 145b 0dbe 7d90 9cbe d8da 5fbe
00000270: fc53 adbe b2eb a8be c848 9bbe f2ff 98be
00000280: d9de acbe a6dc 66be 862f 8ebe b51f 43be
00000290: 32cd 4ebf 0317 2cbe 4315 23bf 3fb6 57be
000002a0: 1dd6 89be 0baa 2abe 0ecf 35bf 47f2 15bf
000002b0: f6b8 48be 3a8e b3be 1580 2abf 7a6d 9abe
000002c0: addb 0abf f445 dcbd 32dc 2abf e515 7dbe
000002d0: 5ada 74be 98a9 38bf 46d8 b2be 71dc cdbe
000002e0: 70a7 52bf 0303 92be 1815 0ebf 53fa 39bf
000002f0: e1df d2be b0d3 d4be 7884 56be 2490 8abe
00000300: 8f37 88be 9f33 85bf bce1 8ebe 1464 12bf
00000310: 4675 20bf cc8a 52bf 6750 39bf aef5 14bf
00000320: 3853 fcbe fbf4 13bf 642b f4be d831 b5be
00000330: 6365 fdbe 774f 49bf 94fa 8fbe 2ac4 a1be
00000340: 158a a1be 4e24 ccbe e236 3abf 8812 20bf
00000350: 6049 99be 52b9 8ebe feeb afbe 9751 b5be
00000360: bfa5 00bf 5bd6 42be b7f3 e6be 2d09 98be
00000370: 5399 2abf b0f8 e9be 67f0 bfbe 5a4e 32bf
00000380: 47a0 8abe 06aa dabe 65ab a7be d650 e0be
00000390: 4bd4 b3be 9b01 a9be 9541 babe 38b7 35bf
000003a0: affc a2be f9d3 9fbe f835 f7be 0cec 6cbe
000003b0: 3f9e 9dbe 30bf 02bf 79b4 f5be dbbd f2be
000003c0: a2e4 0bbf caec d4be 4cdc 84be 388b a5be
000003d0: 5240 41bf 368a d6be f4bc a7be 625c 1bbf
000003e0: 9845 92be 3068 f6be e1ab d6be 3fac 06bf
000003f0: 78f0 1fbf 330e 72be 9e1f 7abe b129 23bf
-0.6073162 -0.2931132 -0.29809695 -1.0911027 -0.8051036 -0.60721135 -0.49968627 -0.44395974
-0.55065656 -0.40487197 -0.44060126 -0.46341747 -0.43759722 -0.39622793 -0.6788147 -0.5938968
-0.35656038 -0.28987494 -0.46734148 -0.5898815 -0.4104464 -0.72061056 -0.28682846 -0.6641426
-0.5588203 -0.24024966 -0.22717278 -0.20015542 -0.42330852 -0.28441948 -0.278947 -0.30119073
-0.21572453 -0.20159522 -0.3676249 -0.20741245 -0.7546913 -0.14440899 -0.6043078 -0.26042897
-0.24299335 -0.19329743 -0.71362424 -0.67228925 -0.22371407 -0.29393816 -0.650095 -0.210667
-0.5000731 -0.21537256 -0.6660585 -0.2962579 -0.3155403 -0.7430697 -0.35402134 -0.39845395
-0.8106079 -0.26996619 -0.5890525 -0.71366787 -0.42737654 -0.37247038 -0.19338524 -0.29009274
-0.3141585 -1.106323 -0.24548994 -0.53861964 -0.6286732 -0.7843744 -0.7603461 -0.60267794
-0.5006866 -0.6120509 -0.52280474 -0.34210432 -0.49289185 -0.7270146 -0.32836583 -0.33663476
-0.23480101 -0.34977698 -0.7314119 -0.6321868 -0.35270095 -0.38559502 -0.32138577 -0.38056844
-0.5255924 -0.16763133 -0.426867 -0.30624762 -0.6898877 -0.43970188 -0.43543583 -0.725321
-0.29191977 -0.329567 -0.278875 -0.5210106 -0.40390974 -0.29965913 -0.30719614 -0.68436366
-0.39443144 -0.30620664 -0.48352998 -0.32201514 -0.31865522 -0.40974513 -0.38170877 -0.521676
-0.51127225 -0.42921674 -0.28244278 -0.30915013 -0.8312509 -0.4485972 -0.19963348 -0.5600112
-0.35108584 -0.49913767 -0.39422926 -0.41153497 -0.57597506 -0.3142161 -0.31101415 -0.6376414
-0.65213037 -0.3590218 -0.23438706 -1.0389287 -0.7932324 -0.6166642 -0.51732177 -0.51242846
-0.46531048 -0.38017324 -0.42956772 -0.51770616 -0.40478528 -0.38458663 -0.71516716 -0.6175502
-0.36923257 -0.2285036 -0.46490607 -0.6484608 -0.40436706 -0.636931 -0.33031082 -0.7118582
-0.5217843 -0.13804275 -0.30578986 -0.21860826 -0.33853137 -0.3299232 -0.30328965 -0.2988277
-0.3376377 -0.22545108 -0.27770633 -0.19055064 -0.80781853 -0.16805653 -0.6370432 -0.21065615
-0.26921168 -0.16666429 -0.71019065 -0.5857281 -0.19601807 -0.35069448 -0.6660169 -0.3016165
-0.5424145 -0.1075553 -0.6674224 -0.24715383 -0.2391142 -0.7213378 -0.3493063 -0.40207246
-0.8228674 -0.28517923 -0.55500937 -0.7264759 -0.4118643 -0.41567755 -0.2094897 -0.27063096
-0.26604888 -1.0406379 -0.27906597 -0.5718396 -0.62678945 -0.8224304 -0.7238831 -0.5818738
-0.4928224 -0.57795686 -0.47689354 -0.3538959 -0.49491414 -0.7863688 -0.28120863 -0.31594974
-0.3155066 -0.39871448 -0.72739995 -0.62528276 -0.29938793 -0.27875763 -0.34359735 -0.3541381
-0.5025291 -0.19027083 -0.45107815 -0.296945 -0.66640204 -0.45697546 -0.374881 -0.69650805
-0.27075407 -0.42707843 -0.3274795 -0.43811673 -0.35122904 -0.33009037 -0.3637816 -0.70982695
-0.31833407 -0.3121641 -0.48283362 -0.2313692 -0.30784795 -0.5107298 -0.47989252 -0.47410473
-0.5464574 -0.41586906 -0.25949323 -0.32332778 -0.7548877 -0.41902322 -0.32761347 -0.6068784
-0.2856872 -0.48126364 -0.41928008 -0.52606577 -0.624763 -0.23638229 -0.24426123 -0.6373549

fc2.bias f4 [101]
00000000: c513 20bf 6693 31bf f532 debd 047d 853c
00000010: 676e 33be c7ac 5c3c 0e07 10bb cc9e 79bd
00000020: 79a5 c7bd 0c66 b5bd 012f b83d f21a 933e
00000030: 269e 6abd e4b4 bfbd af64 f63b 4e9f 1e3d
00000040: 8770 503c d57c ecbd 4ef5 26bf cd54 edbd
00000050: d45c 33bc 5377 06be da55 39bc e3ac efbd
00000060: 5b10 58bd b678 1a3d dc3c 2dbe 609a 8fbc
00000070: 64e1 8e3e 69f3 433d 4654 8abd a17f cb3d
00000080: 56a3 81bd c35a cd3d 1e15 79bd 05fd 9d3d
00000090: c956 bdba 8927 6d3e 2976 82bb 2598 03bd
000000a0: cd2a 53bd 8dee 0ebe ccd9 793c 2283 a0bd
000000b0: e7e0 c33d 6c6f 47bc 2382 3d3e a32c 9f3d
000000c0: 9f5e a43c d40f 913d 032e 7b3d 69da e83e
000000d0: ede1 3abe 3270 e73e 1b0b 943e fdf2 ddbd
000000e0: 7ea0 8d3d 56e1 833e d3eb 33bf 34ba 1dbf
000000f0: 6c58 8e3d 2ee2 253e b6ba ba3c e6b5 9a3d
00000100: 3adf 1bbf 01a1 253e 4a70 00bd 1f58 ab3e
00000110: ab18 1bbf f33e 2bbf ca31 663d 4ab9 b13d
00000120: e280 1bbf c9b9 0fbf 11aa 9b3e b570 24bf
00000130: 9bec c53e ac79 29bf d528 10bf 79f4 bb3d
00000140: 719b 38bf 76b0 29bf c742 8a3e c599 763e
00000150: 2ee3 24bf 79df 27bf 9268 37bf 7668 3cbd
00000160: 44c4 34bf 9449 5bbc 7f48 04be 6ae4 18bf
00000170: 29ac 113e 9197 6b3d cca3 13bf 90af 29bf
00000180: 0ea7 40bc 51d1 653e 48c5 17bf c6c5 31bf
00000190: 1d22 f4bd
-0.62530166 -0.6936554 -0.10849563 0.016294964 -0.17522584 0.013468928 -0.0021976861 -0.060942456
-0.09748358 -0.088573545 0.0899334 0.28731495 -0.05727973 -0.09360674 0.0075193266 0.038726144
0.012722141 -0.11547247 -0.65218055 -0.1158844 -0.010947425 -0.13131456 -0.0113119725 -0.117028974
-0.052749973 0.037712775 -0.16917747 -0.017529666 0.27906334 0.047839556 -0.06754355 0.09936453
-0.06329982 0.10027077 -0.060811155 0.07714275 -0.001444542 0.23159613 -0.003981371 -0.03212752
-0.05155449 -0.13958187 0.015249681 -0.078375116 0.09564381 -0.012172561 0.18506674 0.07772186
0.02006465 0.07083097 0.061323177 0.45479134 -0.18250246 0.45202786 0.28914723 -0.10837362
0.06915377 0.25757855 -0.70281714 -0.6161225 0.06950459 0.16199562 0.022794109 0.075542256
-0.6088749 0.161747 -0.031357087 0.3346567 -0.60584515 -0.6689293 0.056199826 0.08677919
-0.60743535 -0.5614286 0.30403188 -0.6423448 0.38657078 -0.6620128 -0.56312305 0.09177489
-0.72112185 -0.66284883 0.27004072 0.24082096 -0.6440915 -0.6557537 -0.71643937 -0.04599806
-0.7061198 -0.013384242 -0.1291828 -0.5972353 0.1422583 0.057517592 -0.5767181 -0.6628351
-0.011758579 0.22443129 -0.592854 -0.69442403 -0.11920569
