NLPA1/word2vec_checkpoint.pth (torch, 248626 bytes, 9 tensors)

embeddings.weight f4 [101, 100]
0	0x3f7835c4	0.9695704
1	0x3f5c3341	0.8601571
2	0xbf26de9b	-0.6518342
3	0xbca165ee	-0.019701924
4	0xbf42acad	-0.7604473
5	0xbf2ac59d	-0.66707784
6	0xbe96f1c4	-0.29481328
7	0xbf53d07e	-0.8274001
8	0xc0008332	-2.0080075
9	0x3f2577af	0.6463575
10	0x3f6d479b	0.92687386
11	0xbea69ddf	-0.3254232
12	0xbf864036	-1.0488346
13	0xbf6e60bc	-0.93116355
14	0xbe61171e	-0.21981475
15	0xbe9072d2	-0.282126
16	0xbf278c18	-0.6544814
17	0x3f354ba4	0.70818543
18	0xbf8c3e47	-1.0956506
19	0x3f884b84	1.0648046
20	0x3fb528c5	1.4153067
21	0xbe928a00	-0.2862091
22	0x3f728633	0.9473602
23	0x3f213c63	0.6298277
24	0xbdde51c2	-0.10855438
25	0xbf30d857	-0.6908011
26	0xbed04b7a	-0.40682584
27	0xbd407894	-0.046989992
28	0x3e536253	0.20642976
29	0xbf91ea93	-1.1399711
30	0xbf68e07c	-0.90967536
31	0xbffcfef1	-1.9765302
32	0x3f2cdd2a	0.6752497
33	0x3fc638b3	1.5486053
34	0x3f4b87d7	0.7950415
35	0xbfb65613	-1.4245018
36	0xbf6799eb	-0.90469235
37	0x4009ddfb	2.1541736
38	0x3eb0d57e	0.34537882
39	0x3f00d3a6	0.5032295
40	0x3f8ea538	1.1144171
41	0xbefff0ba	-0.49988347
42	0xbff2b59b	-1.8961672
43	0xbf740e0f	-0.9533395
44	0xbf5a6261	-0.85306364
45	0xbf37b251	-0.71756464
46	0x3fa5402c	1.2910209
47	0xbe704fbd	-0.23467918
48	0xbfbe7916	-1.4880702
49	0x3fb6a546	1.4269187
50	0xbe93bbc8	-0.28854203
51	0x3fbec674	1.4904313
52	0x3f02e5a7	0.5113167
53	0xbf88be5d	-1.0683094
54	0x3e303d5c	0.17210907
55	0xbd809d92	-0.06280054
56	0x3fa5b21c	1.294498
57	0xbeba7bb6	-0.3642251
58	0x3e15516a	0.14581838
59	0x3fd524b7	1.665183
60	0xbf9dc5f0	-1.2326031
61	0xbe6e63e4	-0.23280293
62	0x3dc6179a	0.096724704
63	0xbed7371a	-0.42034227
64	0x3e9e26fb	0.30889115
65	0xbe0f80e3	-0.1401401
66	0xbf1eb009	-0.6198736
67	0xbfc3f54c	-1.5309234
68	0xbe4820ed	-0.1954381
69	0x3edc77b0	0.43060064
70	0x3f623465	0.883612
71	0x3fc4eb91	1.5384389
72	0x3e155af3	0.14585476
73	0x3f438bb1	0.7638503
74	0x3f90821d	1.1289707
75	0xbfd17386	-1.636338
76	0xbc81d0c2	-0.015846614
77	0x3eeaa874	0.45831645
78	0x3f2c01fd	0.67190534
79	0xbff37cae	-1.9022424
80	0xbef02f56	-0.46911114
81	0xbea79e02	-0.32737738
82	0xbde0db9b	-0.109793864
83	0xbfceea84	-1.6165318
84	0x3e6f775f	0.2338538
85	0xbf34b56f	-0.70589346
86	0xbf0d17f8	-0.551147
87	0xbf22c7a9	-0.6358591
88	0xbc19793b	-0.0093672825
89	0x3f0cba00	0.54971313
90	0xbf037ee5	-0.513655
91	0xbfab8994	-1.340136
92	0xbca3fc4f	-0.020017771
93	0x3e47e85e	0.19522235
94	0xbf41ed38	-0.7575259
95	0xbf3d25d7	-0.73885864
96	0xbf8eaca5	-1.1146437
97	0x3f866dd4	1.0502267
98	0x3ee38e1e	0.44444364
99	0xbf2782c5	-0.65433913
100	0x3f258a97	0.64664596
101	0x3f06c43d	0.52643186
102	0x3ef3b6a0	0.4760027
103	0xbf0dfbfd	-0.5546263
104	0x3f1ec8e2	0.6202527
105	0x3fc948b7	1.5725316
106	0x3f45bbbe	0.77239597
107	0xbe892ec9	-0.26793507
108	0x3f99f5b3	1.2028106
109	0xbd885002	-0.06655885
110	0xbf296451	-0.66168696
111	0x3eac2cfe	0.33628076
112	0xbfa01ee6	-1.250943
113	0xc002bccc	-2.0427732
114	0xbe554a2b	-0.20829074
115	0xbf82c1da	-1.0215409
116	0x3fb353fa	1.4010003
117	0xbfbdaf5b	-1.4819139
118	0xbf270d1f	-0.65254396
119	0x3f4fd9bf	0.8119163
120	0x3e73b30b	0.23798768
121	0x3d5a4bfb	0.053295117
122	0x3ff4a064	1.9111447
123	0xbd1a0b55	-0.037608463
124	0x3ee53d64	0.447734
125	0x3e29add8	0.16570222
126	0x3fbf06d5	1.492396
127	0x3f568ba8	0.8380685
128	0xbf24b14c	-0.64333034
129	0x3fa82bce	1.3138368
130	0xbef6a7db	-0.4817494
131	0x3e986646	0.29765528
132	0x3ef8e4df	0.48612115
133	0xbf4dc73c	-0.8038213
134	0xbf7e3a5a	-0.9930779
135	0xbf83cdfe	-1.0297239
136	0x3fe30559	1.7736007
137	0xbea85943	-0.328806
138	0xbf06d460	-0.5266781
139	0x3f97e86d	1.1867806
140	0xbe815a22	-0.25264078
141	0x3effe057	0.49975845
142	0xbf4dd99e	-0.8041018
143	0x3f80bfc2	1.005852
144	0x3e82fa39	0.2558153
145	0x3e2eff4b	0.17089574
146	0x3f072e08	0.52804613
147	0x3ecb2cc4	0.3968259
148	0x3fa9343f	1.3219069
149	0x3f61a095	0.88135654
150	0x3f6ff85c	0.9373834
151	0x3d0feda1	0.03513873
152	0x3ec13686	0.3773691
153	0xbf62702e	-0.8845242
154	0x3e9c4889	0.3052409
155	0xbf8439cb	-1.0330137
156	0xbf1ae166	-0.6050018
157	0x3e087475	0.13325675
158	0xbf2836fd	-0.65708905
159	0x3e25ab28	0.16178572
160	0xbf29860b	-0.6622016
161	0x400c56c8	2.1927967
162	0x3f5b9b67	0.85784
163	0xbc41028a	-0.0117803905
164	0xbee2f3f5	-0.4432675
165	0x3eaa669a	0.33281404
166	0x3edf6e90	0.4363904
167	0x3f29745b	0.6619317
168	0x3f119461	0.56867033
169	0x3f2ddc0d	0.67913896
170	0xbe5670b5	-0.20941432
171	0x3f0a4dd8	0.5402503
172	0x3f4f13ca	0.8088957
173	0xbff5060a	-1.9142468
174	0xbf6071ca	-0.8767363
175	0x3e2e0da4	0.16997391
176	0x3e5d4511	0.21608378
177	0x3fbf3c81	1.4940339
178	0xbe4f65d1	-0.20253684
179	0xbeb213e1	-0.3478079
180	0x3d4d254b	0.050084393
181	0x3e156649	0.145898
182	0x3e9346ec	0.28765047
183	0xbe7cb07a	-0.24676695
184	0xbe73e0f6	-0.23816285
185	0xbe6c78da	-0.23092976
186	0x4024409a	2.566443
187	0x3fb100c8	1.3828363
188	0x3f973256	1.1812236
189	0x3e99a183	0.30006036
190	0x3fe18e90	1.7621632
191	0x3fc62b3a	1.5481942
192	0xbe225ae3	-0.15854983
193	0x3e5c3421	0.2150426
194	0x3e5e31e2	0.21698716
195	0x3f783f05	0.9697116
196	0x3d72514a	0.059159555
197	0x3ea435b1	0.32072213
198	0x3fe882ed	1.8164955
199	0x3d5635ed	0.05229752
200	0x3e5f52ae	0.21808884
201	0x3eeca584	0.46220028
202	0x3f389912	0.72108567
203	0x3fe9fbf3	1.8280014
204	0x3eb98277	0.3623235
205	0xbe16df0b	-0.14733522
206	0x3d60ba8a	0.054865398
207	0x3d8253ea	0.063636616
208	0xbe21a619	-0.15786017
209	0x3f086025	0.53271705
210	0xbfc78376	-1.5586994
211	0x3eb79c56	0.35861462
212	0xbf0bc57b	-0.54598206
213	0x3f2a5771	0.66539675
214	0xb9e40447	-0.00043490736
215	0x3eae58ce	0.34052128
216	0x3e925e2b	0.2858747
217	0xbf2f4afa	-0.6847378
218	0x3eb1c1e7	0.34718248
219	0xbbc62d81	-0.006047905
220	0x3d71207e	0.058868878
221	0xbe2c563c	-0.16829771
222	0xbf754093	-0.9580166
223	0xbe99a79a	-0.30010682
224	0x3e18b558	0.14912927
225	0x400e52d2	2.223805
226	0x3fb1ec1a	1.3900177
227	0x3df672a7	0.12033587
228	0x3e8be2da	0.27321512
229	0xbfa303b2	-1.2735503
230	0x3fa19668	1.2624025
231	0x3fa7f8a6	1.3122756
232	0xbda1a3eb	-0.07892593
233	0x3f3860a5	0.7202247
234	0x3e3ab035	0.1823128
235	0xbe8dfd97	-0.27732536
236	0xbf5fcdf8	-0.8742366
237	0x3f20e1fd	0.6284483
238	0x3f58c755	0.84679157
239	0x3d9dc534	0.07703629
240	0x3e24830a	0.16065612
241	0x3f16cc60	0.589056
242	0x3f8d97b2	1.1061919
243	0xbe4b7635	-0.19869311
244	0xbf2dd7f1	-0.67907625
245	0xbf28f98a	-0.66005766
246	0x3f488e9f	0.7834262
247	0x3f05b6ee	0.52232254
248	0x3eeb01b6	0.45899743
249	0xbec8cb0b	-0.3921741
250	0x3e3d117f	0.18463705
251	0xbf09420b	-0.536164
252	0xbec5f5e8	-0.38664174
253	0xbf8f998a	-1.1218731
254	0xbe742c39	-0.23844995
255	0x3f5431a0	0.8288822

linear.weight f4 [101, 100]
0	0xbeef5302	-0.46743017
1	0x3ea1534a	0.31508857
2	0x3e5b0001	0.2138672
3	0xc016c176	-2.355558
4	0xbf8ed87b	-1.1159815
5	0x3da32cdd	0.07967541
6	0x40095718	2.1459408
7	0x3edc7c9c	0.4306382
8	0x3fc1b6bc	1.5133891
9	0x3ffd881f	1.9807166
10	0x3f5668c7	0.8375363
11	0xbec602cd	-0.38674012
12	0xbeff6d54	-0.49888098
13	0x4031eecb	2.7801998
14	0x3f1b56f7	0.6067957
15	0x3fb817cd	1.4382263
16	0xbec85e0d	-0.39134255
17	0xbfb2f504	-1.3981023
18	0x3fd9c2c4	1.7012563
19	0xbf1b8fed	-0.6076649
20	0xbfa1e335	-1.2647463
21	0x3fd26255	1.6436259
22	0x3fcd576d	1.6042305
23	0xbfc0b0d5	-1.5053965
24	0xbf24a2e0	-0.6431103
25	0xbfa352cc	-1.2759643
26	0xbfcf74c0	-1.6207504
27	0x3fce8e77	1.6137227
28	0xbfb5d6d0	-1.420618
29	0x3fc29577	1.5201863
30	0xbfccc7b9	-1.599845
31	0x3f7684ba	0.96296275
32	0x3fb45ee5	1.409146
33	0x3f90fc8b	1.132707
34	0x3f23a658	0.63925695
35	0x3fde1cd9	1.7352554
36	0xbf424259	-0.7588249
37	0x3f8735bd	1.0563275
38	0x4009eff5	2.1552708
39	0x3fe926e2	1.8214991
40	0x3ffb19f9	1.9617301
41	0x3fa5d8f8	1.2956839
42	0x3f981693	1.1881889
43	0xbf414f3f	-0.75511545
44	0x3ee34f1f	0.44396302
45	0xbf304b6b	-0.6886508
46	0xbfd4f141	-1.6636125
47	0xbe89dc4c	-0.26925886
48	0x3f3d9293	0.7405178
49	0x3f1c640b	0.61090153
50	0xbfbe992a	-1.4890492
51	0xbf84a038	-1.0361395
52	0x3fa8f872	1.320082
53	0xbf6c7ec8	-0.9238095
54	0xbfc97bd8	-1.5740919
55	0xbecc2536	-0.3987214
56	0xbfc5733d	-1.5425793
57	0x3fc0f4ab	1.5074667
58	0x40267f22	2.6015096
59	0xbf0e89ba	-0.55678904
60	0xbfaad718	-1.3346891
61	0xbf7def2d	-0.9919308
62	0xbff4bc48	-1.9119959
63	0xbf2968e3	-0.6617567
64	0x3fa57ca3	1.2928661
65	0xbfcc0eeb	-1.5942053
66	0xbfd11667	-1.6334962
67	0x3ea0bb4b	0.31392893
68	0x400ec46e	2.230739
69	0x3f1355f8	0.5755305
70	0xbf6c0553	-0.92195624
71	0xbfb64b90	-1.424181
72	0xbf9f6e20	-1.2455482
73	0xbfb3b870	-1.4040661
74	0x3d41e56d	0.047337938
75	0x3f3b2454	0.7310231
76	0x3fc1228f	1.5088671
77	0x3cc95b52	0.024579678
78	0xbfdb29cb	-1.7122129
79	0x3f90fe87	1.1327676
80	0xbfba4c40	-1.455452
81	0x3f49d873	0.788459
82	0x3eee80b1	0.4658256
83	0xbf53f78b	-0.82799596
84	0xbf75733a	-0.95878947
85	0xbd893f25	-0.06701497
86	0xbfaacb8b	-1.3343366
87	0x3f4d3d6e	0.8017186
88	0x3f8ad3a0	1.0845833
89	0xbf6b552c	-0.91926837
90	0xbfb6ba44	-1.4275594
91	0x3fa2708c	1.2690597
92	0x3f6ef27f	0.9333877
93	0x3d2b029e	0.041750543
94	0x3fc91e63	1.5712398
95	0xbfeba418	-1.8409452
96	0xbf35f9cc	-0.71084285
97	0xbfd65421	-1.6744424
98	0xbfde39d1	-1.7361394
99	0x3edf9a0c	0.43672216
100	0xbecac9d6	-0.39607114
101	0x3e40906e	0.18805096
102	0x3c9ac11a	0.018890906
103	0xc0132f54	-2.2997637
104	0xbf9a436c	-1.2051826
105	0x3d7871b1	0.0606553
106	0x40078d88	2.1180134
107	0x3eeda4a3	0.4641467
108	0x3faeb2e2	1.3648341
109	0x40083f9d	2.1288826
110	0x3f49277e	0.78575885
111	0xbeac6f85	-0.33678833
112	0xbedddffc	-0.4333495
113	0x402a6759	2.6625578
114	0x3ef6c4da	0.4819706
115	0x3fc883de	1.5665243
116	0xbe474625	-0.19460352
117	0xbfaf41f5	-1.3692003
118	0x3fd568dc	1.6672626
119	0xbf08e20f	-0.5346994
120	0xbf9c640c	-1.2218032
121	0x3fc821bc	1.5635295
122	0x3fe3385d	1.7751576
123	0xbfbec695	-1.4904352
124	0xbf2ad9e4	-0.66738725
125	0xbfb86093	-1.4404472
126	0xbfd7fb53	-1.6873573
127	0x3fc93635	1.5719668
128	0xbfa91266	-1.320874
129	0x3fc53da5	1.5409437
130	0xbfc6f861	-1.5544549
131	0x3f72179b	0.9456727
132	0x3fba2b69	1.4544498
133	0x3f9f87c5	1.2463309
134	0x3f1b6de0	0.6071453
135	0x3fca2d19	1.5795013
136	0xbf5b401c	-0.856447
137	0x3f983f74	1.1894364
138	0x40110bc2	2.2663426
139	0x3fd89587	1.6920632
140	0x3ff81659	1.938182
141	0x3fa582a5	1.2930495
142	0x3fa023c0	1.251091
143	0xbf4dd324	-0.804003
144	0x3f04c26f	0.5185918
145	0xbf3628ab	-0.71155804
146	0xbfc3405a	-1.5254014
147	0xbe9419a5	-0.28925815
148	0x3f49ff78	0.7890544
149	0x3f13c072	0.57715523
150	0xbfad1d07	-1.3524483
151	0xbf846dd5	-1.0346018
152	0x3faeb883	1.3650059
153	0xbf825b8b	-1.0184187
154	0xbfd76b44	-1.682961
155	0xbef24a56	-0.4732234
156	0xbfb2f1eb	-1.3980078
157	0x3fbd49cc	1.4788146
158	0x402bbd49	2.683428
159	0xbef60591	-0.48051122
160	0xbfa30c49	-1.2738124
161	0xbf87fe4a	-1.0624478
162	0xbff22b6b	-1.89195
163	0xbf3a7fdb	-0.7285134
164	0x3fa81274	1.3130631
165	0xbfd732ed	-1.6812416
166	0xbfca67fa	-1.5812981
167	0x3ec40852	0.38287598
168	0x4004474e	2.066852
169	0x3f131e59	0.5746818
170	0xbf5c88bf	-0.8614616
171	0xbfcadfae	-1.5849512
172	0xbf8fb88c	-1.1228194
173	0xbfbad80f	-1.4597186
174	0x3d1ebe1c	0.03875552
175	0x3f3c37b2	0.73522484
176	0x3fbb53b5	1.463492
177	0x3d2d8707	0.0423651
178	0xbfd73b56	-1.6814983
179	0x3f877829	1.0583545
180	0xbfd14def	-1.6351908
181	0x3f50b52b	0.8152644
182	0x3f07aca6	0.52997816
183	0xbf5f1d83	-0.87154406
184	0xbf89b077	-1.0756978
185	0x3de636e3	0.112409376
186	0xbf9daad3	-1.2317756
187	0x3f47d0df	0.78053087
188	0x3f71782a	0.9432398
189	0xbf7b72be	-0.9822196
190	0xbfaff46b	-1.3746465
191	0x3fac9481	1.348282
192	0x3f7286f4	0.9473717
193	0x3dc71b8d	0.09722052
194	0x3fcc3db5	1.5956331
195	0xbff0b90a	-1.880647
196	0xbf147c9c	-0.5800264
197	0xbfd034f6	-1.6266162
198	0xbfe2e6c0	-1.7726669
199	0x3efafff8	0.49023414
200	0xbe020876	-0.1269854
201	0xbe6aefb1	-0.22942998
202	0xbe805f1a	-0.25072557
203	0xbd954310	-0.07288182
204	0xbe3dcbfa	-0.18534842
205	0x3e3979a8	0.18112814
206	0xbddcc564	-0.10779837
207	0xbe7d4084	-0.24731642
208	0xbdb9466e	-0.090466365
209	0xbe25da66	-0.16196594
210	0x3eae79da	0.3407734
211	0x3dae039d	0.08496783
212	0x3a7c7ee4	0.0009631945
213	0xbdc5837a	-0.09644218
214	0xbe09cf59	-0.13458003
215	0xbe2043ae	-0.15650818
216	0x3dc95ca0	0.0983212
217	0x3e44723e	0.19184205
218	0xbe24dcbd	-0.1609983
219	0x3c999e5c	0.01875227
220	0xbdd1ab7f	-0.102377884
221	0x3e28ddbd	0.16490836
222	0x3e889e91	0.26683477
223	0x3e3b9af8	0.18320835
224	0x3c8dfbb5	0.017331937
225	0xbec554dd	-0.38541308
226	0xbe85ba59	-0.26118734
227	0x3dd1dd47	0.102472834
228	0x3e8a67ed	0.27032414
229	0xbd16bb46	-0.03679969
230	0xbe88aedd	-0.2669591
231	0xbec8c895	-0.39215532
232	0xbd81b3a0	-0.06333089
233	0xbe441eeb	-0.1915242
234	0xbeb11f09	-0.3459399
235	0xbde8300d	-0.1133729
236	0x3e314db4	0.17314798
237	0xbea40840	-0.32037544
238	0xbe591d56	-0.21202597
239	0xbd2a4039	-0.041565154
240	0x3e53f3b9	0.20698442
241	0xbe160760	-0.14651251
242	0xbd437e3d	-0.047727812
243	0x3ecf57ea	0.4049676
244	0x3ec9d60e	0.39421123
245	0x3e5b6061	0.21423484
246	0xbea7c783	-0.32769403
247	0xbeae8d8d	-0.3409237
248	0xbdb3dc36	-0.08782236
249	0xbdc0dc0f	-0.09416973
250	0x3e21ac93	0.15788488
251	0x3dc6104d	0.09671078
252	0x3e9f92ac	0.3116659
253	0x3e1cbfd2	0.15307549
254	0xbccabaad	-0.024747217
255	0x3e7091bf	0.23493098

linear.bias f4 [101]
0	0xc09e64aa	-4.949788
1	0xc09fbb44	-4.9916096
2	0x3e1692ab	0.14704387
3	0xbeca2c17	-0.39486763
4	0xbd6d3c31	-0.05791873
5	0x3e680888	0.22659504
6	0x3f16ef63	0.58959025
7	0xbe6c6bce	-0.23087999
8	0xbe295a2a	-0.16538301
9	0x3d015e09	0.03158382
10	0x3e7a538a	0.2444593
11	0xbf847a96	-1.034991
12	0xbeca0f61	-0.39464858
13	0x3e5dba2b	0.21653049
14	0xbd971316	-0.07376687
15	0x3e9a14cb	0.3009399
16	0x3e28e394	0.16493064
17	0xbe498375	-0.19679053
18	0xc09d538b	-4.916448
19	0x3ea4e883	0.32208642
20	0x3ed15991	0.40888646
21	0x3ecb3e6d	0.39696065
22	0xbdcf1562	-0.101115
23	0xbeb3a5a5	-0.35087314
24	0xbe471d87	-0.19444858
25	0xbf33979a	-0.701532
26	0xbd962f33	-0.07333221
27	0xbf5797c4	-0.8421595
28	0x3e319b90	0.17344499
29	0xbd12bc7a	-0.035824277
30	0xbe89ffcf	-0.2695298
31	0xbe10292d	-0.14078207
32	0xbeb71589	-0.35758618
33	0xbe373111	-0.17889811
34	0xbea85d0b	-0.32883486
35	0xbdb0ed0d	-0.08638964
36	0x3cfc3159	0.03078525
37	0xbf0458de	-0.516981
38	0xbf0a7cfa	-0.5409695
39	0xbebfe730	-0.3748107
40	0xbd3e095c	-0.046395645
41	0xbe60b148	-0.21942627
42	0xbea59cd8	-0.32346225
43	0xbe9ed2d9	-0.3102024
44	0xbf817b77	-1.0115803
45	0xbe775a45	-0.24155529
46	0x3ce7624a	0.02824511
47	0x3d1fe9c2	0.03904129
48	0xbee73172	-0.4515491
49	0xbf0f3c44	-0.55951333
50	0xbdbffe8c	-0.09374723
51	0xbf3677d0	-0.7127657
52	0xbf246473	-0.64215773
53	0xbf3a82d8	-0.728559
54	0xbf310146	-0.6914257
55	0xbfb1f23e	-1.3902051
56	0xbf862226	-1.0479171
57	0xbf534e60	-0.82541466
58	0xc09d603a	-4.9179964
59	0xc0a0a723	-5.0204024
60	0xbfa888c5	-1.3166739
61	0xbf276d11	-0.654008
62	0xbe963a02	-0.2934113
63	0xbf3047bf	-0.68859476
64	0xc09fbef9	-4.992062
65	0xbf265ffa	-0.649902
66	0xbf08d5e2	-0.5345136
67	0xbf4d5717	-0.80211014
68	0xc09dbd4e	-4.9293585
69	0xc0a0a1b5	-5.0197396
70	0xbfcac1b3	-1.5840362
71	0xbf96ee8c	-1.1791549
72	0xc09ebb00	-4.960327
73	0xc09f2e5d	-4.9744096
74	0xbef0718b	-0.46961626
75	0xc09d3dbd	-4.9137864
76	0xbf3acb93	-0.7296688
77	0xc09e0441	-4.9380193
78	0xc09dad28	-4.927387
79	0xc09fa629	-4.989033
80	0xc09cd762	-4.901292
81	0xc09edcbb	-4.9644446
82	0xbf923fb9	-1.1425697
83	0xbf633d43	-0.8876535
84	0xc0a0d65a	-5.026166
85	0xc0a03d6a	-5.007497
86	0xc09fdfaa	-4.9960527
87	0xbee1d533	-0.4410797
88	0xc09ca599	-4.8952146
89	0xbfa6ef25	-1.3041731
90	0xc09c622a	-4.886983
91	0xc09f88bc	-4.985441
92	0xbfad918f	-1.3560046
93	0xc09e1f00	-4.941284
94	0xc09d8766	-4.922778
95	0xc09fd31d	-4.9945207
96	0xbf9a06ea	-1.203336
97	0xbbe06102	-0.0068475017
98	0xc09e54f0	-4.9478683
99	0xbfb4371f	-1.4079322
100	0xbebfd442	-0.37466627

exp_avg f4 [101, 100]
0	0x00000000	0.0
1	0x00000000	0.0
2	0x00000000	0.0
3	0x00000000	0.0
4	0x00000000	0.0
5	0x00000000	0.0
6	0x00000000	0.0
7	0x00000000	0.0
8	0x00000000	0.0
9	0x00000000	0.0
10	0x00000000	0.0
11	0x00000000	0.0
12	0x00000000	0.0
13	0x00000000	0.0
14	0x00000000	0.0
15	0x00000000	0.0
16	0x00000000	0.0
17	0x00000000	0.0
18	0x00000000	0.0
19	0x00000000	0.0
20	0x00000000	0.0
21	0x00000000	0.0
22	0x00000000	0.0
23	0x00000000	0.0
24	0x00000000	0.0
25	0x00000000	0.0
26	0x00000000	0.0
27	0x00000000	0.0
28	0x00000000	0.0
29	0x00000000	0.0
30	0x00000000	0.0
31	0x00000000	0.0
32	0x00000000	0.0
33	0x00000000	0.0
34	0x00000000	0.0
35	0x00000000	0.0
36	0x00000000	0.0
37	0x00000000	0.0
38	0x00000000	0.0
39	0x00000000	0.0
40	0x00000000	0.0
41	0x00000000	0.0
42	0x00000000	0.0
43	0x00000000	0.0
44	0x00000000	0.0
45	0x00000000	0.0
46	0x00000000	0.0
47	0x00000000	0.0
48	0x00000000	0.0
49	0x00000000	0.0
50	0x00000000	0.0
51	0x00000000	0.0
52	0x00000000	0.0
53	0x00000000	0.0
54	0x00000000	0.0
55	0x00000000	0.0
56	0x00000000	0.0
57	0x00000000	0.0
58	0x00000000	0.0
59	0x00000000	0.0
60	0x00000000	0.0
61	0x00000000	0.0
62	0x00000000	0.0
63	0x00000000	0.0
64	0x00000000	0.0
65	0x00000000	0.0
66	0x00000000	0.0
67	0x00000000	0.0
68	0x00000000	0.0
69	0x00000000	0.0
70	0x00000000	0.0
71	0x00000000	0.0
72	0x00000000	0.0
73	0x00000000	0.0
74	0x00000000	0.0
75	0x00000000	0.0
76	0x00000000	0.0
77	0x00000000	0.0
78	0x00000000	0.0
79	0x00000000	0.0
80	0x00000000	0.0
81	0x00000000	0.0
82	0x00000000	0.0
83	0x00000000	0.0
84	0x00000000	0.0
85	0x00000000	0.0
86	0x00000000	0.0
87	0x00000000	0.0
88	0x00000000	0.0
89	0x00000000	0.0
90	0x00000000	0.0
91	0x00000000	0.0
92	0x00000000	0.0
93	0x00000000	0.0
94	0x00000000	0.0
95	0x00000000	0.0
96	0x00000000	0.0
97	0x00000000	0.0
98	0x00000000	0.0
99	0x00000000	0.0
100	0xba71d0a7	-0.0009224512
101	0xb8a011d6	-7.632717e-05
102	0xba5d542b	-0.0008443023
103	0x3a6c46ef	0.00090132555
104	0xba00c348	-0.00049119117
105	0x394be6e3	0.000194456
106	0xba8de108	-0.0010824511
107	0xb94829d2	-0.00019089066
108	0xb9fe3af0	-0.00048490567
109	0xbad08bc8	-0.0015910799
110	0x37198593	9.150611e-06
111	0xba164a0d	-0.00057330803
112	0xba574e40	-0.0008213259
113	0xba3e3626	-0.00072559936
114	0xb9c51d27	-0.00037596488
115	0xba5de135	-0.00084640394
116	0x39f8ca3e	0.00047452928
117	0x39e6cbac	0.00044020766
118	0xb891d671	-6.9540816e-05
119	0xb8a1022a	-7.677481e-05
120	0xba0d57fd	-0.00053918344
121	0xba54c64d	-0.00081167073
122	0x390a8795	0.00013211214
123	0x3a1045b8	0.0005503553
124	0xb8b398bb	-8.5638334e-05
125	0x39a69060	0.00031769555
126	0xb8ed230f	-0.00011307571
127	0x38cb253c	9.68673e-05
128	0xb8745021	-5.824876e-05
129	0xb79f8d76	-1.902015e-05
130	0x3a31301a	0.0006759182
131	0xba2de685	-0.00066337764
132	0xb81c01ee	-3.7195096e-05
133	0xb9297f8d	-0.00016164612
134	0xb9b6ce20	-0.0003486732
135	0xb8b56630	-8.6497865e-05
136	0x3a95907d	0.0011410859
137	0xb9fa631e	-0.00047757564
138	0xba9c6c77	-0.001193418
139	0x39f9b844	0.0004763027
140	0x36e89956	6.9319894e-06
141	0xb9968d9f	-0.00028715745
142	0xba393ce4	-0.00070662634
143	0x3ac29538	0.0014845496
144	0x395ebcb0	0.00021241861
145	0x3a8416ee	0.0010077634
146	0xba034431	-0.0005007415
147	0x3a0bc2d5	0.00053314614
148	0x38ff83fb	0.00012183931
149	0x3857e87f	5.1476523e-05
150	0x392cb869	0.00016471896
151	0x3a6ff345	0.00091533764
152	0xba47f9a1	-0.0007628445
153	0xb9b87fb0	-0.0003519035
154	0x3a0a5d96	0.00052782276
155	0x398420ef	0.0002520154
156	0xb9d074a1	-0.00039759747
157	0x3914600f	0.00014150164
158	0xba4d311b	-0.00078274467
159	0xba28dbff	-0.00064414734
160	0x3930e5a9	0.00016870223
161	0xb8a5fcfd	-7.914936e-05
162	0x39e77716	0.0004414848
163	0x39d2cb0d	0.00040205606
164	0x39b5287a	0.00034553168
165	0x3a53726f	0.0008066063
166	0xb93f1d90	-0.00018226192
167	0x3a2c0fd2	0.00065636367
168	0xb9d6a1a2	-0.00040937687
169	0x391695a0	0.00014360854
170	0xba2c2d1c	-0.0006568001
171	0x39f0a1b4	0.00045896845
172	0x3a8952f7	0.0010476996
173	0x39eb7a29	0.0004491371
174	0x39ecd5f1	0.00045172827
175	0xb94b6862	-0.00019398474
176	0xba8400fc	-0.0010071094
177	0x38424f29	4.6326928e-05
178	0xb93b40e4	-0.00017857883
179	0xb9b12698	-0.00033788825
180	0x39946283	0.00028302157
181	0xbb0de366	-0.0021650433
182	0x391e6911	0.00015107194
183	0xb9bde1f1	-0.0003621723
184	0x3a506a51	0.00079504127
185	0x39a6b0d9	0.0003179375
186	0xb8a6ce2f	-7.9539015e-05
187	0xba8d8e85	-0.001079992
188	0xba97263e	-0.0011531783
189	0x3a8a30a6	0.0010543063
190	0x399c022f	0.00029756266
191	0xb93adfe8	-0.00017821754
192	0xb9a27846	-0.0003098866
193	0x3a1446a0	0.0005656276
194	0x3a847a07	0.0010107168
195	0x3a956748	0.0011398578
196	0x392ae74a	0.00016298625
197	0x39d946c8	0.00041442201
198	0xb9f603f4	-0.00046923722
199	0x39a0f885	0.0003070274
200	0x3aacc8a0	0.001318235
201	0xba1e43ac	-0.00060373056
202	0x3a1c9299	0.00059727725
203	0x39b65748	0.00034778775
204	0x39ce935e	0.0003940118
205	0x37d79605	2.5699856e-05
206	0x3ae53517	0.0017487135
207	0xb7d8a30d	-2.5825133e-05
208	0xba90ce27	-0.0011047766
209	0x39ee05d1	0.0004539923
210	0xb9e1e2ad	-0.0004308423
211	0x3b0aae6f	0.00211611
212	0xba1f8eb6	-0.0006086634
213	0x3a407286	0.0007341284
214	0xb9d901b0	-0.00041390723
215	0xba5a785b	-0.00083339744
216	0xb9c24490	-0.00037053647
217	0xbac3a9a6	-0.0014927879
218	0xba2f79d5	-0.00066938746
219	0xb9fcd895	-0.00048226552
220	0xba6c838d	-0.0009022288
221	0x3a34be14	0.0006894779
222	0xba97f15e	-0.0011592319
223	0x3a24defe	0.0006289332
224	0xb9d4331b	-0.00040473868
225	0xb8bdc665	-9.049176e-05
226	0x3967a609	0.0002209173
227	0x3a1c13e3	0.0005953891
228	0x3a4c1525	0.0007785133
229	0x3a850cc6	0.0010150902
230	0xba8c2427	-0.0010691927
231	0xba3f7efb	-0.00073049933
232	0xba6a6508	-0.00089414464
233	0xbab3d1a7	-0.0013719097
234	0xba86e525	-0.0010291679
235	0xb99296dc	-0.0002795969
236	0x3a4e48dd	0.0007869134
237	0x3a294bc6	0.00064581295
238	0x3886a693	6.420645e-05
239	0x3a8620c8	0.0010233158
240	0x3998184d	0.00029009805
241	0x3a5ba9a9	0.00083794683
242	0xb9f1b93e	-0.00046105118
243	0x3a809fac	0.0009813211
244	0xbaa98745	-0.001293399
245	0x3a729461	0.00092536776
246	0xb884f5e5	-6.340052e-05
247	0xb6d7ece9	-6.4350793e-06
248	0x39c563df	0.00037649178
249	0xbaca703c	-0.0015444825
250	0x3a590fbd	0.0008280238
251	0x38d599b7	0.00010185263
252	0xbab292df	-0.0013624093
253	0xba8ebe28	-0.0010890411
254	0xb8f14fb3	-0.00011506621
255	0x3ab368c7	0.0013687842

exp_avg_sq f4 [101, 100]
0	0x00000000	0.0
1	0x00000000	0.0
2	0x00000000	0.0
3	0x00000000	0.0
4	0x00000000	0.0
5	0x00000000	0.0
6	0x00000000	0.0
7	0x00000000	0.0
8	0x00000000	0.0
9	0x00000000	0.0
10	0x00000000	0.0
11	0x00000000	0.0
12	0x00000000	0.0
13	0x00000000	0.0
14	0x00000000	0.0
15	0x00000000	0.0
16	0x00000000	0.0
17	0x00000000	0.0
18	0x00000000	0.0
19	0x00000000	0.0
20	0x00000000	0.0
21	0x00000000	0.0
22	0x00000000	0.0
23	0x00000000	0.0
24	0x00000000	0.0
25	0x00000000	0.0
26	0x00000000	0.0
27	0x00000000	0.0
28	0x00000000	0.0
29	0x00000000	0.0
30	0x00000000	0.0
31	0x00000000	0.0
32	0x00000000	0.0
33	0x00000000	0.0
34	0x00000000	0.0
35	0x00000000	0.0
36	0x00000000	0.0
37	0x00000000	0.0
38	0x00000000	0.0
39	0x00000000	0.0
40	0x00000000	0.0
41	0x00000000	0.0
42	0x00000000	0.0
43	0x00000000	0.0
44	0x00000000	0.0
45	0x00000000	0.0
46	0x00000000	0.0
47	0x00000000	0.0
48	0x00000000	0.0
49	0x00000000	0.0
50	0x00000000	0.0
51	0x00000000	0.0
52	0x00000000	0.0
53	0x00000000	0.0
54	0x00000000	0.0
55	0x00000000	0.0
56	0x00000000	0.0
57	0x00000000	0.0
58	0x00000000	0.0
59	0x00000000	0.0
60	0x00000000	0.0
61	0x00000000	0.0
62	0x00000000	0.0
63	0x00000000	0.0
64	0x00000000	0.0
65	0x00000000	0.0
66	0x00000000	0.0
67	0x00000000	0.0
68	0x00000000	0.0
69	0x00000000	0.0
70	0x00000000	0.0
71	0x00000000	0.0
72	0x00000000	0.0
73	0x00000000	0.0
74	0x00000000	0.0
75	0x00000000	0.0
76	0x00000000	0.0
77	0x00000000	0.0
78	0x00000000	0.0
79	0x00000000	0.0
80	0x00000000	0.0
81	0x00000000	0.0
82	0x00000000	0.0
83	0x00000000	0.0
84	0x00000000	0.0
85	0x00000000	0.0
86	0x00000000	0.0
87	0x00000000	0.0
88	0x00000000	0.0
89	0x00000000	0.0
90	0x00000000	0.0
91	0x00000000	0.0
92	0x00000000	0.0
93	0x00000000	0.0
94	0x00000000	0.0
95	0x00000000	0.0
96	0x00000000	0.0
97	0x00000000	0.0
98	0x00000000	0.0
99	0x00000000	0.0
100	0x36cb7dd6	6.0645207e-06
101	0x36f695b8	7.348801e-06
102	0x3689cc20	4.1066814e-06
103	0x37197671	9.147087e-06
104	0x36434670	2.9098264e-06
105	0x3693dd78	4.4067237e-06
106	0x36fa8604	7.466182e-06
107	0x36650174	3.4124505e-06
108	0x36af0058	5.2154464e-06
109	0x36f5ab0a	7.3214806e-06
110	0x36956bfe	4.453118e-06
111	0x370d39d7	8.417722e-06
112	0x36bccfc6	5.6270246e-06
113	0x36f1381b	7.1888912e-06
114	0x3694e45d	4.4373287e-06
115	0x36a04c08	4.777223e-06
116	0x36e9bf38	6.966202e-06
117	0x3695da1c	4.4659373e-06
118	0x370b83ed	8.315762e-06
119	0x36b96753	5.525458e-06
120	0x365f22d4	3.3249862e-06
121	0x36aa5401	5.076174e-06
122	0x3735fb7d	1.0846995e-05
123	0x36b8bcfe	5.505629e-06
124	0x360e08d8	2.1164797e-06
125	0x36e155a4	6.7154924e-06
126	0x36e0f454	6.7041638e-06
127	0x36da7ec3	6.5116633e-06
128	0x36fefaf6	7.5990056e-06
129	0x3682d402	3.898983e-06
130	0x36b5eb38	5.4216034e-06
131	0x36e253df	6.7450887e-06
132	0x373d28d3	1.1274783e-05
133	0x36a20191	4.8281586e-06
134	0x36efff73	7.1524933e-06
135	0x368211cc	3.8763737e-06
136	0x373580fe	1.0818474e-05
137	0x36dc4268	6.5642416e-06
138	0x372da9d0	1.0351141e-05
139	0x36bc7180	5.6160497e-06
140	0x36e30a54	6.7663295e-06
141	0x370fcff4	8.571882e-06
142	0x36cbe234	6.076205e-06
143	0x36efad3c	7.142922e-06
144	0x36d24947	6.2670183e-06
145	0x36aabb25	5.0881813e-06
146	0x368763f4	4.0349496e-06
147	0x36b92dc1	5.518756e-06
148	0x36ccaed6	6.1000273e-06
149	0x36d5a4d5	6.3670836e-06
150	0x3714cc1d	8.869011e-06
151	0x368e430e	4.239736e-06
152	0x370f243f	8.531903e-06
153	0x36ce9d4c	6.15759e-06
154	0x36f03547	7.1587597e-06
155	0x37415c18	1.1525139e-05
156	0x37077289	8.073294e-06
157	0x376611a7	1.3713178e-05
158	0x370117cf	7.694543e-06
159	0x36bf4b52	5.701012e-06
160	0x36e6df2b	6.8805143e-06
161	0x369e9e2d	4.727181e-06
162	0x3716255b	8.949394e-06
163	0x37029b62	7.784782e-06
164	0x36b5cb5f	5.417896e-06
165	0x36a6cb70	4.9708688e-06
166	0x36f41cd3	7.2751222e-06
167	0x371af2a4	9.2356095e-06
168	0x36c800fb	5.9605786e-06
169	0x36631649	3.3838608e-06
170	0x37757451	1.463022e-05
171	0x36bfaf1f	5.7126304e-06
172	0x36d8e778	6.464248e-06
173	0x36df0ddb	6.647531e-06
174	0x36fca4c3	7.529366e-06
175	0x36fe0f4b	7.57157e-06
176	0x373d50cc	1.128409e-05
177	0x36ce0e18	6.140919e-06
178	0x3706aede	8.027737e-06
179	0x36cd0b9a	6.1108267e-06
180	0x369bf752	4.648152e-06
181	0x36e7688c	6.8965073e-06
182	0x36c01f69	5.7257025e-06
183	0x36d23bfd	6.2654713e-06
184	0x3748db8b	1.1972045e-05
185	0x37033bfa	7.822173e-06
186	0x36cb2f71	6.0553944e-06
187	0x36ad0c04	5.1572006e-06
188	0x36cd8189	6.124556e-06
189	0x37265a2c	9.915366e-06
190	0x369610ed	4.472319e-06
191	0x3683f0fe	3.9321594e-06
192	0x371d8fe5	9.391432e-06
193	0x36e8fdf5	6.9437033e-06
194	0x37337eee	1.06987845e-05
195	0x367e072b	3.7853122e-06
196	0x36953e07	4.447767e-06
197	0x36e59149	6.8416452e-06
198	0x36d63dcd	6.3848915e-06
199	0x3709e7ee	8.219837e-06
200	0x378bf812	1.6685608e-05
201	0x37954c61	1.779775e-05
202	0x374f9a83	1.23741365e-05
203	0x378cf2fd	1.680245e-05
204	0x370d130c	8.40869e-06
205	0x37469afa	1.1837803e-05
206	0x37a492df	1.9618716e-05
207	0x3710f2ef	8.639631e-06
208	0x37572ce3	1.282545e-05
209	0x37958dd9	1.7828237e-05
210	0x375c349d	1.3125272e-05
211	0x37c0d762	2.2988479e-05
212	0x372e917e	1.0405083e-05
213	0x379d2a7a	1.8735638e-05
214	0x374fb0fc	1.2379369e-05
215	0x378eed1c	1.7038132e-05
216	0x3756e770	1.280928e-05
217	0x3751e741	1.2511214e-05
218	0x3785909e	1.5922178e-05
219	0x37a9fce4	2.0264131e-05
220	0x37353a2d	1.0801986e-05
221	0x3750fc71	1.2456542e-05
222	0x3787549e	1.6132657e-05
223	0x376264df	1.3494136e-05
224	0x36fa0556	7.451202e-06
225	0x37647209	1.361641e-05
226	0x379ebe4d	1.8923683e-05
227	0x37a80d7a	2.0033436e-05
228	0x378afcf4	1.6568672e-05
229	0x375ec20b	1.327741e-05
230	0x3791baf8	1.7372411e-05
231	0x37a821b1	2.004285e-05
232	0x37941b9e	1.7655835e-05
233	0x379b31fb	1.8500714e-05
234	0x37bf9061	2.2836206e-05
235	0x3756f99b	1.281351e-05
236	0x376e3aeb	1.4199623e-05
237	0x37b2180e	2.1230455e-05
238	0x380c21ba	3.341001e-05
239	0x3792fb65	1.7521621e-05
240	0x37a8a439	2.0103633e-05
241	0x37921e3f	1.741864e-05
242	0x37910f2f	1.7292417e-05
243	0x37ca21ce	2.4096018e-05
244	0x37ab77ce	2.0440577e-05
245	0x3783977a	1.5686954e-05
246	0x374977bf	1.2008414e-05
247	0x37567a96	1.2783936e-05
248	0x3787b087	1.6175456e-05
249	0x37a9a074	2.0221087e-05
250	0x3802b5ad	3.1163614e-05
251	0x377eed46	1.5194824e-05
252	0x376ef392	1.4242616e-05
253	0x3789bb94	1.641902e-05
254	0x37983e57	1.8148841e-05
255	0x37cc8c8c	2.4384142e-05

exp_avg f4 [101, 100]
0	0x2d43472f	1.1100273e-11
1	0x2c3e2751	2.702245e-12
2	0x2da06820	1.8236135e-11
3	0x2eae8eef	7.937994e-11
4	0x2e034f6b	2.985649e-11
5	0xadbe97a3	-2.166784e-11
6	0xae28b6a1	-3.8360985e-11
7	0xadfa9d73	-2.8491631e-11
8	0xae132e16	-3.3464863e-11
9	0xae2bb7bb	-3.9044084e-11
10	0xac776882	-3.5158825e-12
11	0x2d7a14cb	1.4215472e-11
12	0x2debd3c3	2.6810448e-11
13	0xaeddb37a	-1.0081798e-10
14	0x2d45eff8	1.1251437e-11
15	0xadb32657	-2.036697e-11
16	0xadbede49	-2.1699214e-11
17	0x2bc9c85c	1.433752e-12
18	0xae74a55d	-5.562605e-11
19	0x2c150b6c	2.1180514e-12
20	0xad3fb4e4	-1.0897259e-11
21	0xadec0901	-2.6834092e-11
22	0xae78c7a3	-5.6565985e-11
23	0x2d9eb9f2	1.8045097e-11
24	0x2d903d51	1.6398135e-11
25	0x2e355c43	4.123658e-11
26	0x2e06db7c	3.0663014e-11
27	0xaddeec61	-2.5343451e-11
28	0x2e0ad277	3.1564498e-11
29	0xade54709	-2.6065832e-11
30	0xacc537c0	-5.6052663e-12
31	0xae03ef6d	-2.9998604e-11
32	0xae4b7429	-4.6260027e-11
33	0xad7707f6	-1.4042092e-11
34	0xad36fc4a	-1.0401522e-11
35	0xae20c749	-3.655679e-11
36	0x2da6afca	1.8950081e-11
37	0x2cdfc9f8	6.3604642e-12
38	0xae7415a7	-5.5498408e-11
39	0xae1c5c96	-3.5552526e-11
40	0xae773222	-5.6205825e-11
41	0xad911b21	-1.6496639e-11
42	0xada7a1c7	-1.9057545e-11
43	0x2cbb38b6	5.321156e-12
44	0xaba49078	-1.1692999e-12
45	0xab8336dd	-9.323337e-13
46	0x2df85699	2.8232793e-11
47	0x2c5029f0	2.9581858e-12
48	0xacd08281	-5.9262044e-12
49	0xad62c086	-1.28893615e-11
50	0x2e1518f9	3.3900858e-11
51	0x2d8f8021	1.6314118e-11
52	0xac9abe5f	-4.3980787e-12
53	0x2d208d5c	9.126335e-12
54	0x2de08c56	2.5528173e-11
55	0xad2ad54d	-9.7107435e-12
56	0x2e0d360a	3.2107685e-11
57	0xade6b639	-2.6228896e-11
58	0xaea48d0f	-7.4829136e-11
59	0x2d8903ab	1.5576726e-11
60	0x2d03f8bf	7.501721e-12
61	0x2d35096a	1.0290749e-11
62	0x2e638359	5.1730484e-11
63	0x2d93bca0	1.6795731e-11
64	0xae1db9b6	-3.586261e-11
65	0x2e025a05	2.963853e-11
66	0x2e72ec12	5.5234102e-11
67	0xad5f8c76	-1.2707271e-11
68	0xae7108a0	-5.4804716e-11
69	0xac1bb03d	-2.2124657e-12
70	0x2dcd111a	2.3313396e-11
71	0x2ca152a6	4.585071e-12
72	0x2cf5522c	6.9724417e-12
73	0x2e12fac8	3.3419295e-11
74	0xad0fd220	-8.175266e-12
75	0xad6b2a86	-1.33676455e-11
76	0xae16a431	-3.4251883e-11
77	0xaaf1a4c7	-4.2924537e-13
78	0x2e6d2045	5.3916222e-11
79	0xae2d2a15	-3.9373022e-11
80	0x2bd823ab	1.5357623e-12
81	0x2d0c2193	7.965534e-12
82	0xad96e2e9	-1.7153794e-11
83	0x2db75273	2.0841306e-11
84	0x2d1c8f72	8.899425e-12
85	0xadc1aba5	-2.2017785e-11
86	0x2ddee7e1	2.5341453e-11
87	0xad1818c9	-8.645703e-12
88	0xada4d3c0	-1.8738677e-11
89	0x2d07693d	7.697229e-12
90	0x2dcf9df2	2.3603317e-11
91	0xae05172e	-3.0261287e-11
92	0xad976192	-1.7210042e-11
93	0x2dcadbff	2.3062439e-11
94	0xae19cac5	-3.4968268e-11
95	0x2d50ffa2	1.1880193e-11
96	0x2cbb8dfb	5.3306227e-12
97	0x2e4dfb72	4.6834932e-11
98	0x2e157403	3.3981717e-11
99	0xad162b0f	-8.536074e-12
100	0x2d30846b	1.0033844e-11
101	0x2be28b40	1.6096915e-12
102	0x2d9f0e7a	1.8082636e-11
103	0x2eaf45eb	7.9704986e-11
104	0x2e00157c	2.9122912e-11
105	0xadb68839	-2.07515e-11
106	0xae28ae74	-3.8353723e-11
107	0xadffb980	-2.9072522e-11
108	0xae0f4281	-3.2573503e-11
109	0xae2dea11	-3.954354e-11
110	0xacab4525	-4.867789e-12
111	0x2d6d3569	1.348375e-11
112	0x2de61a99	2.6159784e-11
113	0xaede193d	-1.00998744e-10
114	0x2d5b9fe7	1.2484214e-11
115	0xadb4b284	-2.0542908e-11
116	0xadb220d7	-2.0250841e-11
117	0x2bf8f5a3	1.7689638e-12
118	0xae7431c6	-5.5523385e-11
119	0x2c248d9e	2.3384415e-12
120	0xad3cdd7a	-1.073574e-11
121	0xade9f391	-2.6597198e-11
122	0xae753762	-5.575574e-11
123	0x2d9fbc92	1.815995e-11
124	0x2d8b63d7	1.5846808e-11
125	0x2e33060f	4.070527e-11
126	0x2e04f2f5	3.0229114e-11
127	0xadd834dd	-2.4579833e-11
128	0x2e0efde4	3.2512562e-11
129	0xadeb79e3	-2.6770535e-11
130	0xacb53a79	-5.150821e-12
131	0xadffb20e	-2.9069216e-11
132	0xae4ac721	-4.6106344e-11
133	0xad662d94	-1.3084107e-11
134	0xad4278c3	-1.1054438e-11
135	0xae25d666	-3.770708e-11
136	0x2dac10b8	1.956156e-11
137	0x2ccc2623	5.8022628e-12
138	0xae729e1d	-5.5164862e-11
139	0xae188f62	-3.4688148e-11
140	0xae74ffcd	-5.5706374e-11
141	0xad978590	-1.7226026e-11
142	0xadaddefa	-1.9766844e-11
143	0x2cd09798	5.928546e-12
144	0xabed9eea	-1.688397e-12
145	0xaba43532	-1.1667666e-12
146	0x2df6f797	2.8076914e-11
147	0x2c3fcd41	2.7256671e-12
148	0xaccebb31	-5.8756546e-12
149	0xad546914	-1.2074137e-11
150	0x2e13f6fe	3.3643303e-11
151	0x2d88fb96	1.5573137e-11
152	0xac84b4d8	-3.7717433e-12
153	0x2d1595f8	8.502969e-12
154	0x2dd70244	2.4443676e-11
155	0xad4615b8	-1.12598195e-11
156	0x2e0ea787	3.2435856e-11
157	0xadf86eda	-2.8243564e-11
158	0xaea27bd5	-7.388904e-11
159	0x2d87dafc	1.5444972e-11
160	0x2ce85daa	6.6042354e-12
161	0x2d365f85	1.0366712e-11
162	0x2e5d86b9	5.036924e-11
163	0x2d8ddd54	1.6128134e-11
164	0xae1d49e6	-3.5763302e-11
165	0x2dfd48ef	2.8795159e-11
166	0x2e78ddc6	5.6585646e-11
167	0xad499626	-1.1458867e-11
168	0xae70d658	-5.4760058e-11
169	0xab526b29	-7.47557e-13
170	0x2dcd4bf1	2.3339526e-11
171	0x2c951072	4.2366605e-12
172	0x2ce4a808	6.498805e-12
173	0x2e141015	3.3665588e-11
174	0xad057f9b	-7.588509e-12
175	0xad6a5d30	-1.3322052e-11
176	0xae193d3c	-3.484256e-11
177	0x29daa473	9.709672e-14
178	0x2e6739f1	5.257478e-11
179	0xae345415	-4.100194e-11
180	0x2b2be134	6.1063936e-13
181	0x2cf9975f	7.093811e-12
182	0xad8c7e45	-1.5972232e-11
183	0x2daebdd9	1.9865819e-11
184	0x2d0fd031	8.174837e-12
185	0xadc6fbd9	-2.2621837e-11
186	0x2de0e111	2.5565801e-11
187	0xad17c800	-8.627765e-12
188	0xada25825	-1.8456412e-11
189	0x2cf99d47	7.094467e-12
190	0x2dc96ec7	2.290025e-11
191	0xae0df7ac	-3.2279665e-11
192	0xad99479c	-1.7425887e-11
193	0x2dce5d36	2.3460883e-11
194	0xae1825eb	-3.4594477e-11
195	0x2d4e1b51	1.171581e-11
196	0x2cbb959c	5.3314696e-12
197	0x2e4c9720	4.6518456e-11
198	0x2e13511c	3.349597e-11
199	0xad1685d0	-8.556225e-12
200	0x3c368de6	0.01114223
201	0x3acc1220	0.0015569367
202	0xbbb493f1	-0.0055108
203	0xbba7d404	-0.00512171
204	0xbc3609d1	-0.011110739
205	0x3b1a4bb5	0.002354366
206	0x3bf9fc58	0.0076289587
207	0x3b7e754f	0.0038827246
208	0x39c36720	0.00037270132
209	0x3bc12acd	0.005894995
210	0xbbb5ee61	-0.0055520986
211	0x3a73134a	0.00092725886
212	0x3b888a73	0.004166895
213	0x39d327a1	0.00040274582
214	0x3c1648a5	0.009172593
215	0xbbb56a78	-0.0055363737
216	0xbba05d36	-0.004893924
217	0xbaa92e1b	-0.0012907417
218	0xbc1c4acd	-0.009539318
219	0x3bcc1ef1	0.0062292744
220	0x3b549b8a	0.0032441341
221	0xba514fda	-0.0007984616
222	0x39927981	0.00027937818
223	0xbbea5f79	-0.0071524945
224	0x3adf423c	0.0017033289
225	0x3bbe1c23	0.005801694
226	0xbab37576	-0.0013691622
227	0x3b3282dc	0.0027238643
228	0xbb9dad30	-0.0048119053
229	0x3ad386bd	0.0016138178
230	0x3b8f999b	0.004382325
231	0x3be32458	0.0069318227
232	0x3bd116f8	0.006380912
233	0x3b714e58	0.0036820378
234	0x3b5efc72	0.003402498
235	0x3c1d2d5f	0.009593337
236	0xbb2de80d	-0.0026536018
237	0x3c2e7211	0.010647313
238	0x3b9d7827	0.004805583
239	0x3a9b5b70	0.0011852812
240	0x3abaa862	0.0014240856
241	0xba88dae2	-0.0010441209
242	0x3bb7f90a	0.0056144046
243	0xb908f282	-0.00013060312
244	0x3aa0d25f	0.0012269727
245	0x3bc24f27	0.005929846
246	0xba1ce35b	-0.00059848063
247	0x3c1fc437	0.009751371
248	0x393bc41c	0.00017906766
249	0x3b789980	0.003793329
250	0xbb250d2b	-0.002518485
251	0xbbf2cce4	-0.007409679
252	0xbb312174	-0.0027027996
253	0xbbf0197e	-0.0073272577
254	0xbaf658ef	-0.0018794815
255	0xbaead74d	-0.0017916948

exp_avg_sq f4 [101, 100]
0	0x1cea170f	1.5490782e-21
1	0x1d589b78	2.8667737e-21
2	0x1d1fd9de	2.115611e-21
3	0x1e34632e	9.5496305e-21
4	0x1d515dfd	2.770951e-21
5	0x1d2ac53f	2.2601287e-21
6	0x1db672fc	4.829389e-21
7	0x1cd7aad9	1.427167e-21
8	0x1d23da19	2.1685624e-21
9	0x1d929454	3.8799246e-21
10	0x1d6a2c1b	3.0992444e-21
11	0x1ca78aaf	1.1086982e-21
12	0x1d077869	1.7929352e-21
13	0x1e9b763d	1.6460166e-20
14	0x1cd681ab	1.419485e-21
15	0x1d0b0d56	1.8403391e-21
16	0x1d1e9dca	2.09927e-21
17	0x1d1c6aa1	2.0701554e-21
18	0x1db7a72c	4.861255e-21
19	0x1cac2108	1.1390544e-21
20	0x1cb74041	1.2126533e-21
21	0x1d1b66c2	2.0567204e-21
22	0x1ded1fe0	6.2766336e-21
23	0x1cef241b	1.5825026e-21
24	0x1cb76a0c	1.2137337e-21
25	0x1d9789cc	4.0111846e-21
26	0x1d8d65c5	3.7427616e-21
27	0x1d2dc819	2.2999807e-21
28	0x1d171123	1.9993543e-21
29	0x1d13ae08	1.954526e-21
30	0x1cf23fe3	1.6030731e-21
31	0x1d0f84c0	1.8994523e-21
32	0x1d37a776	2.4306424e-21
33	0x1cde5aa1	1.4714155e-21
34	0x1d53540b	2.7969067e-21
35	0x1d5c8678	2.9186276e-21
36	0x1d1bdea3	2.062918e-21
37	0x1c81c001	8.586136e-22
38	0x1e28b115	8.930466e-21
39	0x1d88c55d	3.620297e-21
40	0x1e128f3d	7.758797e-21
41	0x1ce7a49c	1.5328848e-21
42	0x1d22c81b	2.1543974e-21
43	0x1cafbefe	1.1629899e-21
44	0x1cf0e933	1.5942148e-21
45	0x1d0674ba	1.7795099e-21
46	0x1d05ccf7	1.7708368e-21
47	0x1c9d19c1	1.0396046e-21
48	0x1cbaf640	1.2372102e-21
49	0x1c96a23d	9.968105e-22
50	0x1d403282	2.54371e-21
51	0x1d35878d	2.4025229e-21
52	0x1cac9cc5	1.1422529e-21
53	0x1cb79ebc	1.2150956e-21
54	0x1d4e2389	2.7282244e-21
55	0x1cac8be2	1.1418164e-21
56	0x1d7b0c2b	3.3225864e-21
57	0x1d333e7c	2.3722756e-21
58	0x1e90068e	1.5249304e-20
59	0x1ce62034	1.5228448e-21
60	0x1c9bfa06	1.0321669e-21
61	0x1d505367	2.7571689e-21
62	0x1d7ffeeb	3.3880758e-21
63	0x1c012708	4.2732966e-22
64	0x1d2e7b09	2.3092316e-21
65	0x1d4e6319	2.7315105e-21
66	0x1d861ad4	3.5497244e-21
67	0x1d2438f3	2.1734661e-21
68	0x1e0e821a	7.544322e-21
69	0x1c42144c	6.421545e-22
70	0x1d774fda	3.273146e-21
71	0x1cc24d25	1.2857785e-21
72	0x1c743c85	8.0811047e-22
73	0x1d993b88	4.0560317e-21
74	0x1c894622	9.084028e-22
75	0x1ce26347	1.4981088e-21
76	0x1d4e072d	2.7267583e-21
77	0x1c653896	7.584288e-22
78	0x1dabd85d	4.5487038e-21
79	0x1d524621	2.7829524e-21
80	0x1cedea8d	1.5743974e-21
81	0x1c881f36	9.007793e-22
82	0x1cbd2624	1.251683e-21
83	0x1d1fc701	2.1146357e-21
84	0x1c75bee0	8.13104e-22
85	0x1d447af1	2.6003943e-21
86	0x1d91e197	3.8614435e-21
87	0x1cb79503	1.2148443e-21
88	0x1d10f12f	1.918293e-21
89	0x1cfe9237	1.6846106e-21
90	0x1d903024	3.816626e-21
91	0x1d940a47	3.91859e-21
92	0x1c6fbffc	7.93266e-22
93	0x1d3a1326	2.4626795e-21
94	0x1d8f9108	3.8001744e-21
95	0x1d4dde0c	2.724632e-21
96	0x1cae0656	1.1515992e-21
97	0x1d826e6a	3.452488e-21
98	0x1daf2245	4.635755e-21
99	0x1c6b247c	7.7802133e-22
100	0x1ce69e65	1.5261067e-21
101	0x1d55d139	2.829848e-21
102	0x1d23743b	2.163296e-21
103	0x1e38bf5b	9.78045e-21
104	0x1d4d84bf	2.7200152e-21
105	0x1d29b309	2.2459523e-21
106	0x1db71cf0	4.8469617e-21
107	0x1cddc840	1.4676317e-21
108	0x1d2a89da	2.257058e-21
109	0x1d94dac3	3.940147e-21
110	0x1d73fe16	3.2292142e-21
111	0x1ca63e81	1.1001115e-21
112	0x1d06b6d2	1.7829268e-21
113	0x1e9caa02	1.6587456e-20
114	0x1cd6fa64	1.4226057e-21
115	0x1d109cb7	1.913926e-21
116	0x1d1e9ac7	2.0991144e-21
117	0x1d1ddcaf	2.0892868e-21
118	0x1db6e14a	4.8407942e-21
119	0x1caeb303	1.1560628e-21
120	0x1cbab392	1.2354865e-21
121	0x1d1b97ae	2.0592496e-21
122	0x1de99cf4	6.1836872e-21
123	0x1cee1a81	1.575637e-21
124	0x1cb05da8	1.1670913e-21
125	0x1d98392f	4.029319e-21
126	0x1d8a318e	3.6579534e-21
127	0x1d293d15	2.2398542e-21
128	0x1d1b7813	2.0576156e-21
129	0x1d171b68	1.9998852e-21
130	0x1cf030b7	1.589446e-21
131	0x1d10617a	1.9108636e-21
132	0x1d37aa10	2.4307769e-21
133	0x1cd74bfb	1.4247147e-21
134	0x1d5419e5	2.8071354e-21
135	0x1d6383d6	3.0111357e-21
136	0x1d1cb386	2.073924e-21
137	0x1c81a0be	8.578055e-22
138	0x1e28d723	8.938335e-21
139	0x1d876b38	3.5845064e-21
140	0x1e11f514	7.726917e-21
141	0x1cf14d05	1.5967951e-21
142	0x1d27c577	2.2204353e-21
143	0x1cb359e7	1.1868466e-21
144	0x1cfce0f9	1.6734115e-21
145	0x1d04ad72	1.7559724e-21
146	0x1d046e50	1.7527085e-21
147	0x1c9e7f7e	1.0488519e-21
148	0x1cb8af65	1.2221437e-21
149	0x1c992089	1.0133101e-21
150	0x1d42bf0e	2.577446e-21
151	0x1d33db8f	2.3803962e-21
152	0x1caf7354	1.161034e-21
153	0x1cb849db	1.219519e-21
154	0x1d49196f	2.6615277e-21
155	0x1cb78953	1.2145422e-21
156	0x1d7959ab	3.3001233e-21
157	0x1d41c3fd	2.564466e-21
158	0x1e8d71bb	1.4975994e-20
159	0x1ce6dbf0	1.5276976e-21
160	0x1c9c2e88	1.0335242e-21
161	0x1d4d728c	2.7190743e-21
162	0x1d758df8	3.2498876e-21
163	0x1bfc58ed	4.174737e-22
164	0x1d372284	2.4237692e-21
165	0x1d4956a6	2.6646925e-21
166	0x1d8e2798	3.7628026e-21
167	0x1d244284	2.1739607e-21
168	0x1e0ea7bf	7.5521065e-21
169	0x1c4f2b71	6.85467e-22
170	0x1d75dea5	3.2540585e-21
171	0x1cc4049b	1.2971382e-21
172	0x1c75f8ec	8.1385424e-22
173	0x1d996b8e	4.060997e-21
174	0x1c86c93e	8.919396e-22
175	0x1cdf3117	1.4769592e-21
176	0x1d511514	2.7671817e-21
177	0x1c6a53b0	7.753227e-22
178	0x1da6864d	4.4078698e-21
179	0x1d5ea098	2.946448e-21
180	0x1cea467b	1.550304e-21
181	0x1c8c48a1	9.283197e-22
182	0x1cbdf6db	1.2570782e-21
183	0x1d1cc7af	2.0749662e-21
184	0x1c772cdd	8.178343e-22
185	0x1d43be07	2.5906277e-21
186	0x1d8edc6d	3.7815e-21
187	0x1cb7465b	1.2128111e-21
188	0x1d0fc0ed	1.9025633e-21
189	0x1cffb430	1.6921062e-21
190	0x1d90600c	3.8215793e-21
191	0x1d99a383	4.066783e-21
192	0x1c7b8f25	8.3233943e-22
193	0x1d42b7e2	2.5770751e-21
194	0x1d9208d8	3.8655022e-21
195	0x1d4b71c9	2.6925652e-21
196	0x1cbbbc75	1.2423337e-21
197	0x1d81fea9	3.440933e-21
198	0x1dac033d	4.553137e-21
199	0x1c74fc62	8.1059025e-22
200	0x396f84e6	0.00022842325
201	0x3a46aab6	0.00075785385
202	0x39a1dbe9	0.0003087216
203	0x399ebd18	0.00030276994
204	0x399840f8	0.00029040105
205	0x39a3ac0f	0.00031217976
206	0x3987c22f	0.00025893885
207	0x397276a3	0.00023123114
208	0x39883b79	0.00025984252
209	0x397c0f07	0.00024038191
210	0x398bc1ba	0.00026656484
211	0x397ded13	0.00024216277
212	0x39313615	0.00016900183
213	0x39afaf31	0.0003350913
214	0x397d321e	0.0002414663
215	0x3996faba	0.00028797035
216	0x3968ba12	0.00022194561
217	0x39970512	0.00028804742
218	0x39ad95b5	0.00033108672
219	0x393b91a5	0.00017887967
220	0x394990e5	0.00019222831
221	0x39137000	0.00014060736
222	0x39790343	0.00023747706
223	0x395227dd	0.00020042011
224	0x3913db84	0.00014100788
225	0x39b81848	0.00035113306
226	0x3953111c	0.00020128902
227	0x393c5a28	0.00017962663
228	0x39757ce6	0.00023411549
229	0x393fedc6	0.00018303757
230	0x398c7ca1	0.00026795737
231	0x3a1793e5	0.0005782231
232	0x3991aa61	0.00027783497
233	0x398031f8	0.00024451292
234	0x39f35294	0.00046410097
235	0x39aa26ed	0.0003245393
236	0x398d9cfe	0.00027010584
237	0x399638d8	0.0002865258
238	0x3a3972a3	0.0007074272
239	0x396d3fef	0.00022625898
240	0x3983f6d5	0.0002517017
241	0x3986df63	0.00025724908
242	0x3975fecb	0.00023459939
243	0x39b1e09c	0.00033927418
244	0x39a31d75	0.0003111173
245	0x39924f68	0.00027906452
246	0x391478b7	0.0001415935
247	0x396944d7	0.00022246256
248	0x396751d1	0.00022060356
249	0x396dc4a0	0.0002267533
250	0x3990a114	0.00027585833
251	0x39c2ed76	0.00037179486
252	0x3958a191	0.00020659553
253	0x3927c309	0.00015999017
254	0x39ced788	0.00039451965
255	0x3985fc96	0.00025555928

exp_avg f4 [101]
0	0x2f9b6ccf	2.827165e-10
1	0x2f9ad0db	2.8160838e-10
2	0xbc8bca2e	-0.01706418
3	0x39d9387a	0.00041431544
4	0xbb00a30f	-0.001962844
5	0xbbaa17c7	-0.0051908228
6	0x3bc776e0	0.006087169
7	0xbab9eb03	-0.0014184419
8	0xb88bfc43	-6.675024e-05
9	0x3b780d01	0.0037849548
10	0xbbaabcaf	-0.005210481
11	0x3955685b	0.00020352138
12	0x3aaa0254	0.0012970665
13	0xbbc936d9	-0.0061405716
14	0x3c38d0f8	0.011280291
15	0x3b8365ca	0.004009937
16	0x3c58c5d6	0.0132307615
17	0xbc5fc29b	-0.013657237
18	0x2f9ad2af	2.8162137e-10
19	0xbb89c958	-0.0042049102
20	0x3c8281bc	0.015931003
21	0xbc8fe6b2	-0.017566059
22	0x3a6ea85b	0.00091040664
23	0xbc5a8ac6	-0.01333875
24	0x3b92ad9d	0.0044762627
25	0xb79bdc4b	-1.8580022e-05
26	0x3c1cc839	0.009569221
27	0x3a7e9f7a	0.0009713095
28	0x3b68a588	0.0035499055
29	0xbb45c641	-0.0030177983
30	0x3afb0461	0.0019151085
31	0x3a901381	0.0010992141
32	0xb9138a8b	-0.00014070624
33	0x3b14a4e0	0.002268128
34	0x3a91636e	0.0011092254
35	0xbac226ce	-0.001481259
36	0x3c1df45b	0.009640778
37	0xb9ece317	-0.00045182623
38	0xb9ce50a6	-0.0003935147
39	0xbab0e215	-0.0013495112
40	0xbb2a072b	-0.0025944214
41	0xbb684c37	-0.0035445818
42	0x39725b3d	0.00023112907
43	0xba639fa0	-0.0008683149
44	0x36c6087a	5.9018466e-06
45	0x3b128895	0.0022359241
46	0xbb768d54	-0.003762086
47	0x3980dbd6	0.00024577853
48	0x3a5e941c	0.0008490698
49	0xba210ecf	-0.0006143869
50	0x39f672f9	0.00047006438
51	0x38875fb6	6.455129e-05
52	0x3a267f26	0.0006351344
53	0x382cc67e	4.1192856e-05
54	0x3959bce9	0.00020765107
55	0x35bb2945	1.3944597e-06
56	0x37204daa	9.554826e-06
57	0x39746af0	0.0002330949
58	0x2f9ad823	2.816601e-10
59	0x2f9aafdc	2.8137392e-10
60	0x35b0c11e	1.3169226e-06
61	0x398f1679	0.0002729183
62	0x3b350f97	0.00276277
63	0x3aa4f41b	0.0012584956
64	0x2f9a4abe	2.8065544e-10
65	0x39977df6	0.00028894813
66	0x39a80faf	0.00032055142
67	0x3827655e	3.991031e-05
68	0x2f9b9d0f	2.8305933e-10
69	0x2f9a48aa	2.8064068e-10
70	0x360b67ba	2.077299e-06
71	0x38795b14	5.945105e-05
72	0x2f9a7ddf	2.8101874e-10
73	0x2f9c0de7	2.8386113e-10
74	0x3800a611	3.067224e-05
75	0x2f9bd9d7	2.834912e-10
76	0x38ba9554	8.896986e-05
77	0x2f9b05e3	2.8198519e-10
78	0x2f9b048a	2.819756e-10
79	0x2f9aab45	2.813413e-10
80	0x2f9bdd84	2.8351732e-10
81	0x2f9ae23e	2.8173192e-10
82	0x371cfeb9	9.357632e-06
83	0x37292ff5	1.0084351e-05
84	0x2f99592b	2.7893896e-10
85	0x2f99c300	2.7969094e-10
86	0x2f9af674	2.8187552e-10
87	0xbabbb80a	-0.0014321816
88	0x2f9ac50b	2.8152444e-10
89	0x36898ee8	4.0995546e-06
90	0x2f9a6d24	2.8089986e-10
91	0x2f9b2653	2.8221567e-10
92	0x3628eec5	2.5172933e-06
93	0x2f9a1b27	2.803173e-10
94	0x2f9bc406	2.833362e-10
95	0x2f99d855	2.798425e-10
96	0x35d6e4f6	1.6010879e-06
97	0x3b83277a	0.0040025087
98	0x2f9a9f17	2.8125477e-10
99	0x35f46047	1.8207437e-06
100	0xba2992ef	-0.0006468733

exp_avg_sq f4 [101]
0	0x2024d79d	1.3962681e-19
1	0x2023e7ba	1.3883309e-19
2	0x3ab79d2f	0.0014008636
3	0x391f8d9a	0.00015216172
4	0x39cfe5d3	0.0003965335
5	0x3a632b0a	0.0008665776
6	0x3b52df29	0.003217647
7	0x3953cb56	0.00020198277
8	0x3a096ff5	0.0005242818
9	0x3a0fb511	0.0005481998
10	0x3ab5395e	0.0013826301
11	0x36918490	4.336769e-06
12	0x3988839c	0.00026037998
13	0x3aad3259	0.0013213857
14	0x3a0dc7a6	0.0005408473
15	0x3acac480	0.0015469939
16	0x3ac688f0	0.0015147012
17	0x39a0e127	0.0003068533
18	0x2024fb95	1.3974582e-19
19	0x3aa5ac04	0.0012639766
20	0x3a9c5065	0.0011925815
21	0x3ad42369	0.001618487
22	0x3a38cd21	0.00070496096
23	0x39793222	0.00023765166
24	0x394d34eb	0.00019570037
25	0x37c2193c	2.3138353e-05
26	0x3a01b7b5	0.0004948334
27	0x3805c59e	3.1893716e-05
28	0x3a474b8f	0.00076025067
29	0x39a83fde	0.00032091042
30	0x397a137d	0.00023849118
31	0x395ad46c	0.00020869233
32	0x38981c04	7.253143e-05
33	0x39e642e2	0.0004391885
34	0x3915623b	0.00014246341
35	0x39906ae5	0.00027545463
36	0x3a5532f3	0.0008132897
37	0x378c5caf	1.673246e-05
38	0x383623c7	4.34255e-05
39	0x396041ad	0.00021386771
40	0x398ad2d4	0.0002647849
41	0x39151c29	0.00014220238
42	0x394c2079	0.00019467053
43	0x39396426	0.00017680283
44	0x3515793d	5.568325e-07
45	0x3929d246	0.00016195429
46	0x39f7758b	0.00047199088
47	0x39e3d4e9	0.00043455444
48	0x3872ad77	5.7858848e-05
49	0x38474d3a	4.751722e-05
50	0x39daaed2	0.00041710451
51	0x3630c5ec	2.634125e-06
52	0x3880dc6c	6.1445724e-05
53	0x35ccc3cf	1.5256172e-06
54	0x371eaa06	9.4571205e-06
55	0x34122f0d	1.3614427e-07
56	0x34ca2c6a	3.7657747e-07
57	0x3709fa23	8.224076e-06
58	0x202617eb	1.4068661e-19
59	0x2022bbab	1.3784028e-19
60	0x34686e13	2.1646728e-07
61	0x3757ff55	1.2874448e-05
62	0x390fda92	0.00013718967
63	0x3821a78b	3.8541428e-05
64	0x2023d5c9	1.3877373e-19
65	0x370e84ac	8.49475e-06
66	0x37e63f31	2.7447562e-05
67	0x35e7de9d	1.727563e-06
68	0x20260dcf	1.4065316e-19
69	0x20223a3a	1.3741199e-19
70	0x354b9c96	7.5851256e-07
71	0x35a3dd08	1.2208775e-06
72	0x2022e1fe	1.3796708e-19
73	0x2024c7ec	1.3957489e-19
74	0x359fdd43	1.1910819e-06
75	0x2025ce2f	1.4044264e-19
76	0x369a9cd8	4.6078167e-06
77	0x2024f88e	1.397358e-19
78	0x20255715	1.4004857e-19
79	0x2022dfc3	1.379597e-19
80	0x2025fc3a	1.4059498e-19
81	0x2025babb	1.4037828e-19
82	0x358267c6	9.715957e-07
83	0x34fa9b84	4.667928e-07
84	0x20219037	1.3684947e-19
85	0x2021c341	1.3701835e-19
86	0x2023b02e	1.386493e-19
87	0x382ba249	4.0920717e-05
88	0x202542f0	1.3998191e-19
89	0x3370eaaf	5.6092798e-08
90	0x2024e5d6	1.3967387e-19
91	0x2024ff40	1.3975795e-19
92	0x33a62bdf	7.7379575e-08
93	0x20244b9e	1.391636e-19
94	0x2025b955	1.4037365e-19
95	0x2023011b	1.3807003e-19
96	0x334bcc4a	4.745042e-08
97	0x3a15c10c	0.0005712665
98	0x2024c71d	1.3957221e-19
99	0x34f0f5bf	4.4882287e-07
100	0x38f23561	0.00011549402
